apprentissage/mdp.pth (torch, 99183 bytes, 7 tensors)

weight f4 [60, 50]
0	0x3d057fb5	0.032592494
1	0xbcebf750	-0.028804451
2	0xbd9d3f3c	-0.076780766
3	0x3e394a90	0.1809485
4	0xbea592a2	-0.32338434
5	0xba8f01e4	-0.0010910598
6	0xbb93c8d7	-0.004510026
7	0xbe403c60	-0.18773031
8	0x3d5d107c	0.0539708
9	0x3d6704dd	0.056401122
10	0x3d0ca350	0.034335434
11	0xba315d74	-0.000676594
12	0x3c2e563b	0.010640676
13	0x3d2d33b8	0.04228565
14	0xbe3d8300	-0.18507004
15	0xbe9286a0	-0.28618336
16	0xbc98da5f	-0.018658815
17	0x3dba506b	0.0909737
18	0x3d49f27f	0.049303528
19	0x3caf78a4	0.02141983
20	0xbea9c31b	-0.33156666
21	0x3b313eda	0.002704552
22	0xbd86b524	-0.065775186
23	0xbd9b8af8	-0.075948656
24	0x3b8aaaaa	0.0042317705
25	0x3d0c265c	0.03421627
26	0xbb67b02c	-0.003535281
27	0x3c50f533	0.012753773
28	0xbd6a3416	-0.05717858
29	0xbc05c058	-0.008163534
30	0x3d121ba6	0.0356709
31	0xbd03eadf	-0.032206412
32	0xbbb7579f	-0.005595162
33	0x3d0c2ef5	0.03422447
34	0xbd80658f	-0.06269371
35	0xbdf9cd88	-0.12197405
36	0x3ceca920	0.028889239
37	0x3d299ca6	0.041409157
38	0xbf0ea8ac	-0.5572612
39	0xbcde5960	-0.027142227
40	0xbc64e4f7	-0.013970605
41	0x3b92c5fc	0.004479168
42	0xbd1d3ee7	-0.038390066
43	0x3b2c1a90	0.002626095
44	0x3d20fc13	0.039302897
45	0xbc8773e4	-0.016534753
46	0x3d304089	0.043030296
47	0xbcff92d9	-0.031197952
48	0x3db6e911	0.08931173
49	0xbc9b8d01	-0.018988134
50	0xbdfd4bb4	-0.12367955
51	0x3cdc848a	0.026918668
52	0xbd9a930c	-0.07547578
53	0x3d90e701	0.070753105
54	0xbefdbc7e	-0.4955787
55	0xbcd87523	-0.026423043
56	0x3d114633	0.035467338
57	0xbe5b7d3a	-0.21434489
58	0xbd8ff308	-0.070287764
59	0xbdbe41b3	-0.09289875
60	0x3daa5002	0.083160415
61	0xbd6e1f82	-0.058135517
62	0x3bb3d525	0.0054880553
63	0x3d6a8cc6	0.05726316
64	0xbd215e52	-0.03939659
65	0x3d016505	0.03159048
66	0x3d2c4f96	0.042068087
67	0xbe9a9e1c	-0.30198753
68	0xbc882062	-0.016617004
69	0xbd4255db	-0.04744516
70	0x3eb99b1e	0.36251158
71	0x3cae618f	0.021286754
72	0x3ca4c9a9	0.02011569
73	0xbd8ed8d0	-0.069749475
74	0xbcd17daf	-0.025572626
75	0xbdc9a6aa	-0.09846242
76	0xbdce19e5	-0.10063533
77	0xbd1d17aa	-0.038352646
78	0xbcffc3ec	-0.031221353
79	0xbd605483	-0.054768097
80	0xbd23b171	-0.039964143
81	0x3cce0848	0.025150433
82	0x3d250058	0.04028353
83	0xbd35bb08	-0.04436782
84	0x3dd8f3ec	0.105933994
85	0xbe5492a4	-0.20759064
86	0xbd3d3b52	-0.04619915
87	0x3d113c14	0.035457686
88	0xbe8d116f	-0.27552363
89	0xbda101d7	-0.07861679
90	0xbcd2b131	-0.025719257
91	0xbcbae067	-0.022812082
92	0xbc1d27b9	-0.00959199
93	0x3e95a242	0.29225355
94	0x3c43fd8c	0.011962306
95	0xbce93c8f	-0.02847126
96	0xbdec150c	-0.11527452
97	0x3da5c0ef	0.0809344
98	0x3cead39d	0.028665358
99	0xbd0c765f	-0.034292575
100	0xbda5553e	-0.08072899
101	0x3e126259	0.14295329
102	0x3dfb86ca	0.12281568
103	0xbeafbc65	-0.3432342
104	0x3f145783	0.5794603
105	0x3e4788c9	0.19485773
106	0x3db72ec9	0.089444704
107	0xbe86b247	-0.2630789
108	0xbd14bba3	-0.036311757
109	0xbda94503	-0.08265116
110	0x3ea4200d	0.32055703
111	0x3e086e93	0.1332343
112	0x3cb9e11c	0.022690348
113	0x3bbb5f02	0.005718113
114	0xbf01e5e1	-0.5074139
115	0xbe253d11	-0.16136576
116	0x3b281e8f	0.002565298
117	0x3eb8c069	0.36084297
118	0xbdfcf493	-0.12351336
119	0x3bbfc046	0.005851778
120	0x3f335135	0.7004579
121	0x3c667768	0.014066555
122	0x3da5c516	0.08094232
123	0xbda03374	-0.07822314
124	0xbdad9d67	-0.08477288
125	0x3d49346a	0.04912225
126	0x3c3b8aab	0.011446635
127	0xbd8a6ad4	-0.06758657
128	0x3de7cddf	0.11318564
129	0x3ca0004b	0.01953139
130	0xbba97b46	-0.005172166
131	0x3df354ae	0.11881386
132	0x3e30ae86	0.17254075
133	0x3d677c6a	0.056515135
134	0x3d9d8317	0.07691019
135	0xbe04ffb2	-0.12988165
136	0xbd942bc4	-0.0723491
137	0xbe0cc4c9	-0.13746943
138	0x3f91e2f6	1.1397388
139	0x3ded0786	0.115737006
140	0xbd1befdf	-0.038070556
141	0xbd66564a	-0.056234635
142	0x3dbeb55a	0.09311934
143	0xbb83b94d	-0.0040198923
144	0xbc2c55fb	-0.010518546
145	0x3d6e743a	0.05821631
146	0x3cc883fe	0.024477001
147	0xbd5b127a	-0.053484417
148	0x3b223f28	0.0024756882
149	0x3c87f6ce	0.016597178
150	0x3d0dc209	0.034608874
151	0xbdca3e0a	-0.09875114
152	0xbc8ca61a	-0.017169047
153	0x3fbb39d6	1.4627025
154	0x3f146ddc	0.5798013
155	0x3d504511	0.050847117
156	0x3b7ab555	0.0038255055
157	0xbdb48ab2	-0.088155165
158	0x3e07b563	0.13252787
159	0xbe26bc01	-0.16282655
160	0xbf0188e9	-0.50599533
161	0xbdddf4d8	-0.10837716
162	0xbd384294	-0.04498537
163	0xbcff2c27	-0.031148983
164	0xbe027a8a	-0.12742057
165	0xbef82d6f	-0.48472163
166	0xbb42cb65	-0.0029723283
167	0x3f08d707	0.53453106
168	0x3db44e5c	0.08804008
169	0xbe7eaee4	-0.24871403
170	0x3ec8ac7e	0.391941
171	0xbc066df7	-0.008204929
172	0x3d92220e	0.07135402
173	0x3d87b736	0.066267416
174	0xbcc547b9	-0.024082052
175	0xbd849859	-0.064743705
176	0xbb54501c	-0.0032396382
177	0x3c317676	0.010831466
178	0x3cf618c6	0.03004111
179	0xbdb1823a	-0.08667417
180	0xbdf6355e	-0.12021898
181	0x3cd1ae5b	0.025595834
182	0xbd69764b	-0.05699758
183	0xbcfaca07	-0.030613912
184	0xbcce1bf0	-0.025159806
185	0xbe754003	-0.239502
186	0xbdaf1f3f	-0.085508816
187	0xbe224fa4	-0.15850693
188	0x3fed3414	1.8531518
189	0xbbc41f6b	-0.0059851906
190	0x3a486bca	0.00076454564
191	0x3d98e0b3	0.07464733
192	0x3c24e4ac	0.010064285
193	0xbe6d01ba	-0.2314519
194	0xbcb12bb1	-0.021627279
195	0x3d1ed4e9	0.038777266
196	0x3d46df8c	0.048553035
197	0x3d2e4dbf	0.042554613
198	0x3d3f31e8	0.046678454
199	0xbe01df47	-0.1268283
200	0xbbc02ec5	-0.0058649504
201	0xbbf46085	-0.007457795
202	0xbd07ece2	-0.033184893
203	0xbd93e42b	-0.07221254
204	0xbdac7216	-0.08420198
205	0xbdc3558b	-0.095378004
206	0xbc944ab5	-0.01810203
207	0x3ea95998	0.33076167
208	0x3cbb4621	0.022860589
209	0x3d71aa56	0.059000336
210	0xbf57cb62	-0.8429471
211	0xbb8d1673	-0.0043056547
212	0x3cc85dac	0.024458729
213	0xbdf52597	-0.1197006
214	0xbe95d58c	-0.29264486
215	0x3e9912dc	0.298972
216	0x3c086339	0.008324438
217	0x3e0e9384	0.1392346
218	0xbd8e9ce6	-0.0696352
219	0x3a7abc9d	0.0009564849
220	0xbd00ebec	-0.031474993
221	0xbc2988fa	-0.010347599
222	0x3c296e18	0.01034119
223	0xbd367eea	-0.04455463
224	0x3b80289f	0.0039110924
225	0x3da72734	0.08161774
226	0x3cf08081	0.02935815
227	0xbd31f43a	-0.043445803
228	0x3d55788c	0.052116916
229	0x3d463861	0.04839361
230	0x3c814e1c	0.015784316
231	0xbd167cd7	-0.03674015
232	0xbc3ee121	-0.011650355
233	0xbd835322	-0.06412341
234	0xbaa5eccc	-0.0012659072
235	0x3ecead35	0.4036652
236	0x3c9ed17d	0.019387001
237	0xbd46dbe0	-0.048549533
238	0x3e66e31f	0.22547577
239	0x3ccabc09	0.024747865
240	0xbc2f0640	-0.010682642
241	0xbc5c4472	-0.013444053
242	0xbcb97d41	-0.022642734
243	0x3e1065eb	0.14101379
244	0xbdf63cc2	-0.120233074
245	0xbc2f4f4a	-0.010700056
246	0x3d7f7102	0.062363632
247	0x3d1ae4dd	0.037815917
248	0x3a9a7eaa	0.0011787016
249	0x3d1df02c	0.038559124
250	0x3db31147	0.0874353
251	0x3da912b5	0.08255521
252	0x3c13c4d8	0.009019099
253	0x3e6571f1	0.22406746
254	0x3e8cc473	0.2749363
255	0x3d97f574	0.07419863

weight_ih_l0 f4 [100, 50]
0	0x3d18d053	0.03730805
1	0x3d1b0d3c	0.03785442
2	0xbd83285b	-0.064041816
3	0x3c31e31c	0.01085737
4	0xbc1683a6	-0.009186661
5	0x3e323027	0.17401181
6	0xbd8d8a86	-0.06911187
7	0x3c52ec8c	0.01287378
8	0x3de5e1e8	0.11224729
9	0x3e22ed4c	0.15910834
10	0x3d9306ec	0.071790546
11	0x3cc21d91	0.023695739
12	0x3d1c893c	0.038216814
13	0x3d9bde18	0.076107204
14	0x3da5bb52	0.08092369
15	0x3c936bb0	0.017995685
16	0x3d971792	0.073775426
17	0xbdf71d10	-0.1206609
18	0x3e2a65b3	0.16640358
19	0x3d968217	0.073490314
20	0xbd0af260	-0.033922553
21	0x3c5040ca	0.012710759
22	0x3c08c761	0.008348317
23	0x3d32b38e	0.043628268
24	0x3ceab2e7	0.02864976
25	0x3e0503cf	0.12989734
26	0xbd1b2909	-0.03788093
27	0x3e160dd9	0.1465372
28	0xbdf9ac39	-0.12191052
29	0x3d4129b6	0.04715892
30	0xbdb7a465	-0.08966903
31	0x3d71a656	0.05899652
32	0x3c048c12	0.008090036
33	0xbe01df43	-0.12682824
34	0xbd771738	-0.060324878
35	0x3d9179c5	0.07103304
36	0x3d0ace65	0.03388824
37	0x3d9626b0	0.07331598
38	0x3cbfe621	0.023425164
39	0x3d512a79	0.051065896
40	0x3e2e92a2	0.17048123
41	0x3dc3d42c	0.09561953
42	0x3dd20f45	0.10256819
43	0xbc8751b8	-0.016518459
44	0xbb9eba2c	-0.0048439708
45	0x3d551c15	0.052028734
46	0x3cdfdf11	0.027328046
47	0x3d154e00	0.03645134
48	0xbc3fdf28	-0.011710919
49	0xbbd787e5	-0.006577479
50	0xbd609f1e	-0.054839246
51	0xbd316e78	-0.04331824
52	0x3e260945	0.16214474
53	0xbb4821f1	-0.0030537809
54	0x3d5675d4	0.052358463
55	0x3d249ba5	0.040187497
56	0x3d26b303	0.040698063
57	0x3ca27f9c	0.01983624
58	0xbd1d312a	-0.038376965
59	0xbc9a24f0	-0.018816441
60	0x39851fba	0.00025391375
61	0x3db2a4a3	0.08722808
62	0xbcbd3e6f	-0.02310106
63	0x3dc613eb	0.09671768
64	0x3d771051	0.060318295
65	0x3cd85345	0.026406894
66	0xbd832289	-0.064030714
67	0xbc7d8e57	-0.015475831
68	0x3da1d46b	0.07901844
69	0xbe0d9dea	-0.1382977
70	0x3cb51738	0.022105798
71	0xbe203a12	-0.15647152
72	0xba5bd060	-0.00083852373
73	0x3c86552d	0.016398037
74	0x3d159da9	0.03652731
75	0xbdd70263	-0.10498502
76	0xbc1fe1c5	-0.0097584175
77	0x3cf557a5	0.029949019
78	0xbc929520	-0.017893374
79	0x3d1aca94	0.03779085
80	0xbd13153d	-0.035908926
81	0x3cf489bd	0.029850835
82	0xbda6bfe0	-0.08142066
83	0xbc8bdb84	-0.017072447
84	0xbd5507dd	-0.052009452
85	0xbd7e6a4e	-0.0621131
86	0xbc6c903e	-0.014438687
87	0xbc33d254	-0.010975439
88	0xbc5642d5	-0.013077457
89	0x3d8a6755	0.0675799
90	0x3bf23010	0.0073909834
91	0x3dce6b03	0.100790046
92	0x3ca45984	0.020062216
93	0xbce375bf	-0.027766107
94	0x3c2d493b	0.010576542
95	0x3deea458	0.1165244
96	0x3ad6f81b	0.0016400845
97	0x3d23ef54	0.040023163
98	0xbd11e71f	-0.035620805
99	0xbdc564b1	-0.09638346
100	0x3d692d39	0.056927893
101	0x3db2cb91	0.087302335
102	0x3cac9694	0.021067895
103	0xbd4b6305	-0.04965498
104	0xbc6f7724	-0.014615808
105	0xbc4801fe	-0.012207506
106	0xbd8ded90	-0.06930077
107	0x3bfad2df	0.0076545323
108	0xbdcbe731	-0.09956206
109	0x3d85006a	0.064942196
110	0x3c3a89fa	0.011385435
111	0xbdbb78cf	-0.09153902
112	0x3dd80709	0.10548217
113	0xbd2e9f5d	-0.04263245
114	0xbc8a1dab	-0.01685985
115	0x3bbefbac	0.0058283415
116	0x3dcf5f45	0.10125593
117	0xbb876bf4	-0.004132742
118	0xbc44d874	-0.012014497
119	0x3cca236a	0.02467509
120	0xbc922074	-0.01783774
121	0xbd3f46cb	-0.046698373
122	0xbb2a6494	-0.002599989
123	0x3d48cc71	0.049023096
124	0x3d6d6a68	0.057962805
125	0x3dca1d2a	0.09868844
126	0x3d195fa7	0.037444737
127	0x3d25d33c	0.040484652
128	0x3bed9850	0.007250823
129	0x3defe914	0.11714378
130	0xbde2d455	-0.11075655
131	0xbd361af9	-0.044459317
132	0xbdaeac82	-0.08528997
133	0xbbb7273a	-0.005589393
134	0xbde50956	-0.11183421
135	0x3b893fd0	0.0041885152
136	0x3d575f2e	0.052581005
137	0x3d13c50c	0.03607659
138	0x3c6d1ac1	0.014471711
139	0xbc048edc	-0.008090701
140	0x3e3dedea	0.18547788
141	0xbbbefce9	-0.005828489
142	0x3ce68909	0.028141515
143	0xbceec411	-0.029146226
144	0xbd9a4424	-0.07532528
145	0x3d810630	0.06300008
146	0x3cfe54cb	0.031046292
147	0x3dcd6985	0.10029892
148	0xbcd040ee	-0.025421586
149	0x3cc672bd	0.024224633
150	0xbcd571fe	-0.026055332
151	0x3d7cbf63	0.061705958
152	0xbd2d59b3	-0.042321872
153	0xbcce84ea	-0.025209863
154	0xbd467f7d	-0.048461426
155	0x3c800775	0.015628556
156	0x3de0c81a	0.10975666
157	0x3d2a1149	0.04152039
158	0x3d584932	0.05280418
159	0xbe0e418f	-0.13892196
160	0xbab6d874	-0.0013950006
161	0xbd0b18cd	-0.0339592
162	0x3cffbae8	0.031217054
163	0x3c09ac62	0.008402916
164	0x3c3d9ca8	0.011572994
165	0x3d0fa701	0.035071377
166	0x3c810997	0.015751643
167	0x3ccb1a3c	0.024792783
168	0x3d6b1871	0.057396356
169	0xbcc049cf	-0.023472695
170	0x3d234887	0.03986409
171	0x3cbabeda	0.022796083
172	0x3d4868da	0.04892812
173	0x3d107558	0.035268158
174	0xbd970319	-0.07373638
175	0x3c5f3018	0.013622306
176	0x3dab1204	0.083530456
177	0x3e6a49e1	0.22879745
178	0x3b429b30	0.002969455
179	0xbd043310	-0.03227526
180	0xbd106ecd	-0.035261918
181	0xbd182fde	-0.037155025
182	0xbc18b85b	-0.0093212975
183	0x3d14de88	0.036345035
184	0xbd933a41	-0.071888454
185	0xbc050146	-0.008117979
186	0x3d1699e6	0.036767863
187	0xbcf352e3	-0.02970261
188	0x395bfd23	0.00020979768
189	0xbd001085	-0.031265754
190	0xbd84da12	-0.06486906
191	0x3d1f4470	0.038883626
192	0x3dad50ae	0.08462654
193	0x3c9f952e	0.019480314
194	0xbcc430c4	-0.023949035
195	0xbb8e4ecc	-0.0043428894
196	0x3c8577a4	0.0162924
197	0xbd5b38e5	-0.053521056
198	0xbd868277	-0.06567853
199	0xbd51a1b9	-0.05117962
200	0x3de790fb	0.1130695
201	0xbca3b4e8	-0.019983724
202	0x3dc18656	0.09449451
203	0xbc03a46a	-0.008034805
204	0xbb6e773e	-0.0036386992
205	0x3dcddfab	0.10052427
206	0xbc8ffcbe	-0.017576572
207	0x3c01726f	0.007900818
208	0xbc95df4c	-0.018294953
209	0x3d4af302	0.049548157
210	0x3d483cc0	0.04888606
211	0x3dc3d6fa	0.09562488
212	0x3b85e9df	0.0040867175
213	0xbc220e33	-0.009891081
214	0x3d2412d9	0.040057037
215	0xbcfedf34	-0.03111229
216	0x3e17d882	0.14828685
217	0xbdebb80f	-0.11509716
218	0xbd08fb7c	-0.03344296
219	0x3dd06379	0.10175223
220	0xbcb20e36	-0.021735292
221	0x3c5520e1	0.013008327
222	0xbcd03de0	-0.02542013
223	0xbdb6120f	-0.08890163
224	0xbd18df18	-0.037322134
225	0x3c688e6e	0.014194114
226	0xbdd0376c	-0.10166821
227	0x3c225033	0.009906816
228	0x3dd47297	0.10373419
229	0xbc8f724f	-0.017510561
230	0xbe0ba8e5	-0.13638647
231	0x3bd233f8	0.0064148866
232	0xbd10125e	-0.035173766
233	0x3c3b81c0	0.011444509
234	0x3d63d54d	0.05562334
235	0x3c098566	0.008393621
236	0x3dfc0fcc	0.123077005
237	0xbd3448ad	-0.04401462
238	0x3d09f7d1	0.0336836
239	0xbdf078b6	-0.11741774
240	0x3d721c3b	0.059108954
241	0x3cee90cc	0.029121779
242	0x3ddb0b7b	0.10695549
243	0xbc9f42aa	-0.019440968
244	0x3d27d1d3	0.04097159
245	0xbd937ed0	-0.07201922
246	0xbcf18bb7	-0.029485567
247	0xba59a57d	-0.0008302553
248	0xbd41e118	-0.047333807
249	0x3d69ae2a	0.05705086
250	0x3ccfe067	0.025375558
251	0xbc81053f	-0.015749572
252	0x3d061e67	0.032743838
253	0xbd1ea3be	-0.038730375
254	0xbdbc5b3a	-0.091970876
255	0xbdff5a89	-0.1246844

weight_hh_l0 f4 [100, 100]
0	0xbd20ab1a	-0.039225675
1	0x3d0f8983	0.03504325
2	0x3c307733	0.010770607
3	0x3d11eaca	0.035624303
4	0x3b3f9a67	0.0029236318
5	0x3ca2232d	0.019792164
6	0xbdb3e85a	-0.08784552
7	0xbd8e5a0a	-0.06950767
8	0x3d5ab020	0.053390622
9	0x3d3d2d40	0.046185732
10	0x3a4834cd	0.00076372625
11	0x3ca3192d	0.019909466
12	0xbd130fd7	-0.035903778
13	0xbdb39515	-0.087686695
14	0x3d750cd7	0.0598267
15	0x3d097c5a	0.033565857
16	0xbc2f7833	-0.01070981
17	0xbc88570d	-0.016643072
18	0xbd8e8900	-0.069597244
19	0xbd96aea3	-0.07357528
20	0xbc8183ba	-0.015809882
21	0x3c1d759a	0.009610558
22	0xbda42430	-0.08014715
23	0x3cef5ad3	0.029218113
24	0xbd6a9e6d	-0.057279993
25	0xbd07578a	-0.033042468
26	0x3dbb5a7b	0.09148117
27	0x3d92112a	0.0713218
28	0xbd45fa73	-0.04833455
29	0x3d9f3907	0.07774549
30	0xbdb017bb	-0.08598276
31	0xbd2afca7	-0.041744854
32	0x3cde450d	0.027132535
33	0xbd3df983	-0.04638053
34	0xbc863073	-0.016380524
35	0xbdacb457	-0.084328346
36	0x3d0ed400	0.034870148
37	0x3d7c0143	0.06152464
38	0x3d4b8cc7	0.049694803
39	0x3c5dbb5a	0.013533438
40	0xba458000	-0.0007534027
41	0x3d8285e8	0.06373197
42	0x3d1e22ad	0.03860729
43	0x3d7c6e43	0.06162859
44	0xbdac6b87	-0.08418947
45	0xbdae58ef	-0.085130565
46	0xbdcc2b18	-0.09969157
47	0x39d10b33	0.0003987193
48	0x3d05255d	0.032506336
49	0x3dcb8d47	0.09939056
50	0x3d4a9310	0.049456656
51	0x3d237520	0.03990662
52	0xbc94e9b3	-0.018177843
53	0x3d4a1ced	0.049343992
54	0xbcd6584d	-0.026165152
55	0x3c70f14d	0.014705968
56	0x3d8d5e1f	0.06902718
57	0x3db7a778	0.08967489
58	0xbd583260	-0.052782416
59	0xbd4688e0	-0.048470378
60	0xbd70259d	-0.05862962
61	0x3d9d59d5	0.0768315
62	0x3d8b0cf7	0.06789582
63	0x3dc8d1af	0.09805619
64	0xbb142c67	-0.0022609474
65	0xbd704923	-0.0586635
66	0x3d9eb15a	0.07748671
67	0xbb5254cd	-0.0032094002
68	0xbdacb488	-0.08432871
69	0xbdc7edeb	-0.09762176
70	0xbda530e5	-0.080659665
71	0xbd0232ad	-0.03178661
72	0x3ccf147a	0.025278319
73	0x3d573350	0.05253917
74	0xbd4b3b87	-0.049617317
75	0xbd4c6d83	-0.049909126
76	0xbdc1e1c0	-0.094668865
77	0x3ce0601a	0.027389575
78	0xbc76571a	-0.015035415
79	0x3ce69d00	0.028151035
80	0x3db14983	0.086565994
81	0xbb8bd100	-0.004266858
82	0x3d7ce66a	0.061743177
83	0x3d4d9213	0.050188135
84	0x3cacaca7	0.02107842
85	0x3ce1c420	0.02755934
86	0xbd2365b3	-0.03989191
87	0x3c313167	0.010815001
88	0x3dbc7358	0.092016876
89	0xbd484d30	-0.048901737
90	0x3d292cb3	0.041302394
91	0xbc75f227	-0.015011347
92	0x3c96b55a	0.018397022
93	0x3d685dba	0.05673001
94	0x3da2cf80	0.07949734
95	0x3d787270	0.06065601
96	0xbb0b5200	-0.0021258593
97	0x3ca06007	0.01957704
98	0xbcece733	-0.028918838
99	0x3d02ccc3	0.031933557
100	0x3d26d0b7	0.04072639
101	0xbd012d17	-0.03153714
102	0x3d34d82d	0.044151474
103	0xbdc94c72	-0.09829034
104	0xbdbaa5a0	-0.09113622
105	0x3d6dd4a0	0.058064103
106	0xbd439cd3	-0.04775698
107	0xbca9faf3	-0.020749545
108	0x3d5a79dd	0.053338874
109	0xbd2f94ea	-0.042866625
110	0x3d77197a	0.06032703
111	0xbd8ad9e8	-0.067798436
112	0xbd89387d	-0.067002274
113	0xbbed9ab3	-0.0072511076
114	0xbd4f3ee0	-0.05059707
115	0x3d8f66ca	0.07002027
116	0x3c0ac45a	0.008469665
117	0xbda1319a	-0.07870789
118	0x3d439d07	0.047757175
119	0x3d985ebd	0.07439945
120	0x3dc8632b	0.0978454
121	0xbd9d011d	-0.07666228
122	0x3da11802	0.07865907
123	0x3d614bf0	0.05500406
124	0x3d932272	0.07184304
125	0xba4fb267	-0.00079230074
126	0xbd78f740	-0.06078267
127	0x3dbdb308	0.09262663
128	0xbc9902cd	-0.018678093
129	0x3db459f2	0.08806218
130	0xbd058593	-0.03259809
131	0x3dc746dd	0.09730313
132	0x3cdccee0	0.026954114
133	0x3d957485	0.07297615
134	0xbdc0c4b3	-0.094125174
135	0x3db42047	0.08795219
136	0xbdc1a4a3	-0.0945523
137	0xbd6e9293	-0.058245253
138	0xbc00871a	-0.007844711
139	0xbda58adf	-0.08083128
140	0xbbcc88cd	-0.006241894
141	0xbdbb05a3	-0.091319345
142	0x3c1d0ec0	0.009586036
143	0xbd65c750	-0.056098282
144	0x3d0ee29d	0.034884084
145	0xbce5f947	-0.028072966
146	0xbcbcfd93	-0.023070132
147	0xbd95151d	-0.07279418
148	0xbdc86b9f	-0.09786152
149	0x3d8ea0aa	0.06964238
150	0x3cac77cd	0.02105322
151	0x3d85551a	0.065103725
152	0xbc100eda	-0.008792603
153	0xbd7d986d	-0.061912943
154	0x3d37dbb0	0.044887245
155	0xbda23f7b	-0.07922264
156	0x3d37732d	0.044787575
157	0x3dc91b13	0.09819617
158	0xbd9b114f	-0.07571661
159	0x3dc1fc40	0.09471941
160	0xbcb2743a	-0.021783937
161	0x3d236543	0.039891493
162	0x3b02e59a	0.001997328
163	0x3da593c8	0.08084828
164	0x3dc63a8f	0.09679138
165	0xbc836b5a	-0.0160424
166	0xbdac827b	-0.08423325
167	0xbcb9dd0d	-0.022688413
168	0x3d9feef7	0.07809251
169	0xbdb9c3e7	-0.090705685
170	0xbd681eca	-0.056669988
171	0x3d2292c0	0.039690733
172	0xbd807038	-0.06271404
173	0x3d1f7380	0.03892851
174	0x3d3a6540	0.045506716
175	0x3d8d412d	0.06897197
176	0x3d4a5cfa	0.049405076
177	0xbd8ee518	-0.0697729
178	0x3c6cf200	0.014461994
179	0x3db8a425	0.09015683
180	0xbce3efc7	-0.027824296
181	0x3da41698	0.08012122
182	0xbd6a00ad	-0.05712955
183	0x3da48040	0.08032274
184	0x3d828a9b	0.06374093
185	0xbd79d443	-0.060993444
186	0xbd2f2d57	-0.04276785
187	0x3ac26f9a	0.0014834285
188	0xbd164c4d	-0.03669386
189	0x3d904980	0.07045269
190	0x3d2b3b1d	0.04180442
191	0x3dc53ee2	0.096311346
192	0xbd2a1ac3	-0.04152943
193	0xbd913693	-0.07090487
194	0xbd5c1257	-0.053728428
195	0x3c21fb40	0.009886563
196	0x3d01e9d7	0.031717148
197	0x3da7c032	0.08190955
198	0x3cdc59ed	0.026898349
199	0x3d8dd332	0.06925048
200	0xbc89ce60	-0.01682204
201	0x3dc85172	0.097811595
202	0xbda1523d	-0.07877014
203	0xbbccf700	-0.0062550306
204	0xbc1156e7	-0.008870817
205	0xbdab5a28	-0.08366805
206	0xbdbba6ab	-0.09162649
207	0x3c9d481a	0.01919942
208	0xbd7a8fc3	-0.061172258
209	0x3d99cf4a	0.075102404
210	0xbd03c46a	-0.032169737
211	0x3db16530	0.08661878
212	0x3db23ef7	0.08703416
213	0xbd1d290a	-0.038369216
214	0xbd055a27	-0.03255668
215	0x3dbfdf0f	0.09368717
216	0xbca3ab40	-0.01997912
217	0x3db08017	0.08618181
218	0x3db717f0	0.089401126
219	0xbd834c1b	-0.06411
220	0xbdb24b0f	-0.087057225
221	0x3db150e5	0.086580075
222	0x3d74c687	0.059759643
223	0xbd92eaef	-0.07173716
224	0xbc5fa04d	-0.0136490585
225	0x3dccb838	0.099960744
226	0xbd00c2d7	-0.031435814
227	0x3d6a20b0	0.05716008
228	0x3d0ea580	0.0348258
229	0x3d3fd38d	0.04683261
230	0xbda3084d	-0.079605676
231	0x3d32818d	0.04358058
232	0xbd2ffec0	-0.042967558
233	0xbd919cbf	-0.07109975
234	0x3dac1f28	0.0840438
235	0x3dc23e8f	0.09484588
236	0x3d890cf2	0.06691922
237	0x3db4a880	0.08821201
238	0xba27b333	-0.0006397247
239	0xbc588d27	-0.013217247
240	0x3d270ad7	0.040781822
241	0xbd533453	-0.051563572
242	0x3da51d00	0.08062172
243	0xbd8f36ad	-0.069928505
244	0x3d7c7480	0.06163454
245	0xbdafb7d0	-0.08579981
246	0xbceddfc0	-0.029037356
247	0x3d9464a0	0.07245755
248	0x3d5de710	0.054175436
249	0x3daffe0b	0.08593377
250	0x3dc81a90	0.097706914
251	0x3d527b33	0.051387023
252	0xbd34abfa	-0.044109322
253	0xbda1acb7	-0.07894271
254	0xbdaaeb57	-0.08345669
255	0xbd2a00ed	-0.04150479

bias_ih_l0 f4 [100]
0	0x3c317fab	0.010833661
1	0x3c38c808	0.01127816
2	0x3cde674f	0.02714887
3	0x3d5083ea	0.050907053
4	0xbbbc27c4	-0.005742045
5	0xbc841365	-0.01612253
6	0x3c0dfb70	0.008665904
7	0x3d91d9db	0.07121631
8	0x3eb5f20b	0.35536227
9	0xbd29fed9	-0.041502807
10	0xbbf9d313	-0.007624039
11	0xbc5c29ea	-0.0134377275
12	0xbbc86f2c	-0.0061167683
13	0x3be105b8	0.006867137
14	0x3d6bcbd4	0.057567433
15	0x3d6971f6	0.056993447
16	0x3dcd2bc8	0.10018116
17	0x3cd0bfeb	0.025482139
18	0x3dcfe862	0.101517454
19	0xbd43b5f9	-0.047780965
20	0xbc60bd94	-0.013717074
21	0xbd51aa30	-0.051187694
22	0x3d6f775b	0.058463436
23	0xbd86c72f	-0.0658096
24	0x3cc10bfd	0.023565287
25	0x3e61a60c	0.22035998
26	0x3dbcaab2	0.09212245
27	0xbe83c92f	-0.25739428
28	0xbfeda584	-1.8566136
29	0xbccacecc	-0.024756812
30	0xbc46e04c	-0.0121384375
31	0xbd668060	-0.05627477
32	0xbcb77aba	-0.022397388
33	0xbc7543b1	-0.014969752
34	0xba92eb7e	-0.0011209098
35	0x3d4ce206	0.05002024
36	0xbd16a66d	-0.03677981
37	0x3bf41f56	0.0074500246
38	0x3d2c3cd4	0.042050198
39	0x3c38b425	0.011273419
40	0xbd447f03	-0.04797269
41	0x3d2fac96	0.0428892
42	0xbc5dec66	-0.013545131
43	0x3d320b32	0.043467708
44	0xbd101460	-0.03517568
45	0x3d52f9a2	0.0515076
46	0xbcaca6f9	-0.021075713
47	0x3a9f0baf	0.0012134219
48	0x3d9beaf7	0.07613175
49	0xbd03c299	-0.032168005
50	0xbd3ca56b	-0.046056192
51	0x3cf8153e	0.030283567
52	0x3bb72fdf	0.0055904235
53	0x3c5ab79f	0.013349443
54	0xbcad1b1e	-0.021131095
55	0x3cd4f0c5	0.025993714
56	0xbcd65006	-0.026161205
57	0xbdff2626	-0.12458448
58	0xbcb78a91	-0.02240494
59	0x40d8ca12	6.774667
60	0xbc512da2	-0.012767227
61	0x3ba80d31	0.0051285257
62	0x3d066ab1	0.032816593
63	0x3f89c2b8	1.0762548
64	0xbc06a080	-0.008216977
65	0x40cc7f01	6.3905034
66	0xc00d11f6	-2.2042212
67	0x3cd8b0c1	0.02645147
68	0xbd3c7ef0	-0.046019495
69	0x3cd0a750	0.025470406
70	0x3d57a32b	0.052645843
71	0x3a78a972	0.00094856985
72	0xbeb28560	-0.34867382
73	0x3e90053b	0.2812899
74	0x3c5a1354	0.013310272
75	0xbc240c9a	-0.01001277
76	0xbd8f0286	-0.06982903
77	0x3c8622b7	0.016373975
78	0xbd3d510b	-0.046219867
79	0xbcca8db7	-0.024725778
80	0xbd62b8cd	-0.05535202
81	0xbdaf2953	-0.08552804
82	0xbd12447d	-0.035709847
83	0x3cfe18f2	0.031017754
84	0xbd0f5ee4	-0.035002604
85	0xbc873a20	-0.016507208
86	0xbcadfe3b	-0.02123939
87	0xbcbdb92f	-0.023159591
88	0xbd253c4c	-0.040340707
89	0x3d94effe	0.072723374
90	0x3d4abd6b	0.04949705
91	0xbd0b9191	-0.03407437
92	0xc00c9dff	-2.1971433
93	0xbdb1f039	-0.08688397
94	0x3dacdcac	0.08440527
95	0xbc85d661	-0.016337575
96	0x3d1e3bf7	0.038631406
97	0x3c862587	0.016375316
98	0xbd5f95f7	-0.054586377
99	0xbc0c594d	-0.008566213

bias_hh_l0 f4 [100]
0	0x3d23c338	0.039981097
1	0xbc6fe586	-0.014642125
2	0xbd82cb48	-0.06386429
3	0xbc00191e	-0.007818488
4	0xbd13f74e	-0.03612452
5	0xbac9cc8e	-0.0015396045
6	0xbd03c7cb	-0.03217296
7	0xbda6810b	-0.08130082
8	0x3ecb49af	0.39704654
9	0x3d0fef1b	0.035140138
10	0xbd2c7281	-0.042101387
11	0x3d44d78d	0.048057128
12	0xbce9c76f	-0.02853748
13	0x3c2beab4	0.010492969
14	0xbcb914e1	-0.022592964
15	0xbd8d7049	-0.06906182
16	0xbdb30858	-0.08741826
17	0xbd01a9c6	-0.03165605
18	0xbd0cf4cc	-0.034413144
19	0x3d34f07b	0.044174653
20	0x3d838fb0	0.064238906
21	0x3c1f636a	0.009728292
22	0xbd783387	-0.060596015
23	0x3d4bf098	0.049789995
24	0xbd777a55	-0.0604194
25	0x3e558120	0.20850039
26	0x3e06dc90	0.13170075
27	0xbe1c2c51	-0.1525128
28	0xbfd81680	-1.6881866
29	0xbcadb829	-0.021205978
30	0x3d33d080	0.043900013
31	0x3db3958d	0.08768759
32	0xbc213248	-0.009838648
33	0x3d6cb012	0.0577851
34	0xbd727f3a	-0.059203364
35	0x3c414613	0.011796492
36	0x3d3c03cf	0.04590207
37	0xbd00f94e	-0.031487755
38	0xbc2271d0	-0.00991483
39	0xbc49077b	-0.01226985
40	0x3d2170a8	0.039414078
41	0xbd95633a	-0.072943166
42	0x3d92eb8e	0.07173835
43	0xbd9807aa	-0.07423337
44	0x3b7c553f	0.003850296
45	0x3ad8cb47	0.0016540074
46	0x3d8b63b8	0.06806129
47	0xbd6978f5	-0.05700012
48	0xbd100941	-0.035165075
49	0x3d2ddf25	0.042449135
50	0x3c293db3	0.010329652
51	0xbce2ba6a	-0.02767678
52	0x3cd36b30	0.025807947
53	0xbd9ed6f6	-0.07755844
54	0xbca7776a	-0.020442683
55	0xbcbf4df2	-0.023352597
56	0xbbd1937b	-0.006395755
57	0xbe15b705	-0.14620598
58	0x3c3bae60	0.011455148
59	0x40d67eba	6.7029696
60	0xbcaf0368	-0.021363929
61	0x3d4664ff	0.04843616
62	0x3c5bc7e1	0.013414354
63	0x3f990e66	1.1957519
64	0x3cbfbc63	0.02340526
65	0x40ca9b85	6.3314843
66	0xc00ab398	-2.1672115
67	0xbd4a6cdc	-0.049420223
68	0x3caec629	0.021334725
69	0xbd29316a	-0.04130689
70	0xbd7dc50b	-0.061955493
71	0x3c2a6125	0.010399138
72	0xbe85b905	-0.2611772
73	0x3ed0f38d	0.40810814
74	0xbd08e2be	-0.033419363
75	0xbd847b4a	-0.06468828
76	0x3d67c5ab	0.056584995
77	0xbcf2e151	-0.029648455
78	0x3d5aff1f	0.05346596
79	0x3cec0ca3	0.02881462
80	0xbda7a63b	-0.08186003
81	0x3d8570ba	0.065156415
82	0x3db7d23c	0.08975646
83	0xbd593f7a	-0.05303905
84	0x3aaf704e	0.001338491
85	0x3c97842f	0.018495647
86	0xbcbcd64b	-0.023051402
87	0x3c872eff	0.016501902
88	0xbccd00ac	-0.025024734
89	0xbd817f72	-0.063231364
90	0xbce7d377	-0.028299076
91	0x3c4e3ff3	0.012588489
92	0xc01439c5	-2.316026
93	0x3cf6f2e6	0.03014512
94	0xbd9b95d6	-0.07596938
95	0xbdd5d779	-0.10441489
96	0xbcd9475b	-0.026523283
97	0x3c449312	0.011997955
98	0x3d61d0b9	0.055130694
99	0x3dcf0f4d	0.1011034

weight f4 [60, 100]
0	0x3f9f6f5b	1.2455858
1	0xbe512fac	-0.20428342
2	0xbf16367d	-0.5867689
3	0xbe721c77	-0.23643671
4	0x3e435e5e	0.19078967
5	0xbf858a7a	-1.0432885
6	0x3eb68b10	0.3565297
7	0xbf0fb2ac	-0.56132007
8	0x413f5f88	11.960823
9	0x3f148fed	0.58032113
10	0xbdbbf2ca	-0.09177168
11	0xbeb76434	-0.35818636
12	0xc0995a65	-4.7922845
13	0x3e9f91f8	0.31166053
14	0xbfaf483b	-1.3693918
15	0x3f08800b	0.5332038
16	0x3e18491a	0.14871636
17	0x3ee9ece9	0.4568856
18	0xbf2be300	-0.6714325
19	0xbed41d08	-0.414284
20	0x3efc6b3c	0.49300563
21	0xbf13cec1	-0.57737356
22	0xbd82da58	-0.06389302
23	0xbf2f3f3d	-0.6845587
24	0xc08deddc	-4.4352856
25	0x4061997c	3.524993
26	0x40471bd6	3.111074
27	0x40aee4e3	5.4654403
28	0x4108575a	8.521326
29	0xbfa83144	-1.3140035
30	0xc07af11d	-3.9209664
31	0x3f00036e	0.50005233
32	0xbd346b45	-0.044047613
33	0xc21703e2	-37.75379
34	0xbbb4b3df	-0.0055146064
35	0x3f01c6e7	0.50694126
36	0xbe0e8f65	-0.13921888
37	0x3ecbbced	0.39792576
38	0x3f766593	0.9624874
39	0xbeeca2c5	-0.46217933
40	0xbe9d0374	-0.30666697
41	0x3d9392cc	0.07205734
42	0x3f357413	0.7088024
43	0xbed80412	-0.42190605
44	0x3ed6cdd2	0.41953903
45	0xbede9616	-0.4347388
46	0xbf52a718	-0.82286215
47	0x3dd4817c	0.1037626
48	0x3f7e73b3	0.99395293
49	0x3d9095ce	0.07059823
50	0x3e946438	0.2898271
51	0xbca44691	-0.02005318
52	0xbf17f880	-0.59363556
53	0x3cc19b18	0.023633525
54	0xbd6f3534	-0.058400348
55	0xbe72e936	-0.23721775
56	0x3f8eac24	1.1146283
57	0x410db61a	8.856958
58	0xbe8f05cd	-0.27934113
59	0xc1aaee7d	-21.36645
60	0xbf57e8dc	-0.8433969
61	0x3f2e91e1	0.68191344
62	0xbf50219f	-0.813013
63	0xc186f04c	-16.867332
64	0xbe99ce1e	-0.30040067
65	0xc1d28b68	-26.31807
66	0x425936c1	54.30347
67	0x3f0378a5	0.51355964
68	0xbbe49ef5	-0.006976957
69	0x3ef7c3bb	0.48391518
70	0x3e692d7a	0.22771254
71	0x3d534926	0.05158343
72	0x41a31b57	20.38835
73	0xc111ae9c	-9.105129
74	0xbf5a4375	-0.8525918
75	0xbeda5fd7	-0.42651245
76	0xbf212c67	-0.6295838
77	0xbf0c275b	-0.5474755
78	0xbe6cb4e2	-0.23115876
79	0x3e154871	0.14578415
80	0x41173b87	9.452033
81	0xbf23f0d1	-0.6403933
82	0x3e07e982	0.1327267
83	0x3edd3be3	0.43209752
84	0x3f5ecd04	0.8703158
85	0x3ec93a73	0.39302406
86	0xbfb649a6	-1.4241226
87	0xbf2a2567	-0.6646332
88	0xbd354778	-0.04425761
89	0xbfbd07fd	-1.4768063
90	0x3ec820ef	0.39087626
91	0x3ea7ea69	0.32796028
92	0x41b3320d	22.399439
93	0xbe879f65	-0.26488796
94	0xbf56bc42	-0.8388101
95	0xbffb6453	-1.9639992
96	0xbe325720	-0.17416048
97	0x3eb57a6e	0.3544497
98	0x3f1f9c01	0.6234742
99	0xbe55c158	-0.20874536
100	0x3f9e14c1	1.2350084
101	0xbe8efa9d	-0.27925578
102	0xbf0d3fef	-0.5517568
103	0xbe501187	-0.20319186
104	0x3e29aaeb	0.16569106
105	0xbf801c16	-1.0008571
106	0x3eb84b05	0.35994735
107	0xbf084ef0	-0.5324545
108	0x41384463	11.516696
109	0x3f1963d8	0.59917974
110	0xbd4ebff8	-0.050476044
111	0xbeb42197	-0.35181877
112	0xc099d54a	-4.8072863
113	0x3e99e51e	0.30057615
114	0xbfaf3f04	-1.3691106
115	0x3eee90f3	0.46594962
116	0x3e4e1e7f	0.20128821
117	0x3eca8985	0.39558044
118	0xbf1d61d8	-0.6147742
119	0xbecca7a1	-0.3997164
120	0x3ef7fcaf	0.4843497
121	0xbf174801	-0.59094244
122	0xbdf5c0ef	-0.1199969
123	0xbf2b55ff	-0.66928095
124	0xc08cdedd	-4.402205
125	0x406d19a1	3.7046893
126	0x4054749e	3.3196177
127	0x40a690ae	5.205161
128	0x410fb273	8.981067
129	0xbfa8f833	-1.3200744
130	0xc0655cd1	-3.58379
131	0x3f0babd4	0.54559064
132	0xbdb2c3fc	-0.08728787
133	0xc215c883	-37.445812
134	0x3d6a9f10	0.0572806
135	0x3ef48f89	0.4776576
136	0xbdcd4419	-0.10022754
137	0x3ec3ef04	0.38268292
138	0x3f72dd4a	0.9486891
139	0xbef17292	-0.47157723
140	0xbeaaf7ae	-0.3339209
141	0x3d59a98f	0.05314022
142	0x3f30f149	0.6911817
143	0xbecc7e2d	-0.39940014
144	0x3eb2054c	0.34769666
145	0xbec40860	-0.3828764
146	0xbf5df555	-0.8670247
147	0x3ddca660	0.10773921
148	0x3f744f2d	0.9543331
149	0x3db22d9b	0.08700105
150	0x3ea50e24	0.3223735
151	0x3be32806	0.0069322614
152	0xbf0e586f	-0.5560369
153	0x3e15ff98	0.14648283
154	0xbd7ee9f9	-0.062234852
155	0xbe974c07	-0.29550192
156	0x3f8e377f	1.1110686
157	0x410d3786	8.826056
158	0xbea2c448	-0.31790376
159	0xc1acb45e	-21.58807
160	0xbf5a3f60	-0.8525295
161	0x3f18455b	0.5948083
162	0xbf4a03f2	-0.7891227
163	0xc1853961	-16.653017
164	0xbe9d0a2a	-0.30671817
165	0xc1dcba18	-27.590866
166	0x42551697	53.27206
167	0x3ef934d9	0.48673132
168	0x3d0e1cf2	0.034695573
169	0x3ee7f2f9	0.4530256
170	0x3e5f1056	0.21783575
171	0x3d889574	0.06669131
172	0x41a2b3d0	20.3378
173	0xc10dc6d3	-8.861041
174	0xbf52d428	-0.82354975
175	0xbea31140	-0.31849098
176	0xbf1c7867	-0.6112122
177	0xbf078760	-0.5294094
178	0xbe5acfdd	-0.21368356
179	0x3df55fb3	0.11981144
180	0x41188d14	9.534443
181	0xbf205776	-0.62633455
182	0x3e327971	0.17429139
183	0x3ef2d6f9	0.47429636
184	0x3f619d5e	0.8813075
185	0x3ecc0f99	0.3985565
186	0xbfb93fda	-1.4472611
187	0xbf2c06d8	-0.6719794
188	0xbd61254b	-0.054967206
189	0xbfc1cb72	-1.5140212
190	0x3ea28c95	0.3174788
191	0x3e983e5a	0.2973507
192	0x41b3d7ac	22.480309
193	0xbe9d205b	-0.30688748
194	0xbf5894f4	-0.84602284
195	0xbff365c0	-1.9015427
196	0xbe3a7ab8	-0.18210876
197	0x3e8f4dff	0.27989194
198	0x3f1dd31d	0.6165026
199	0xbe59f722	-0.2128568
200	0x3fa46079	1.2841941
201	0xbe8b7640	-0.27238655
202	0xbf12a55f	-0.57283586
203	0xbe57ab3a	-0.21061411
204	0x3e305e08	0.1722337
205	0xbf6ffa67	-0.9374146
206	0x3ed11764	0.40838158
207	0xbf157067	-0.5837464
208	0x413a6fd7	11.652305
209	0x3f2857ff	0.6575927
210	0xbdfb34ab	-0.12265905
211	0xbebf9ccf	-0.37424323
212	0xc0998b31	-4.798241
213	0x3e9d8a0e	0.3076939
214	0xbfb14e81	-1.3852082
215	0x3f04740c	0.51739573
216	0x3dd06772	0.10175981
217	0x3ef8d7c1	0.48602107
218	0xbf2a0ff2	-0.6643058
219	0xbee0fe29	-0.4394391
220	0x3f09fe00	0.539032
221	0xbf1d3919	-0.6141525
222	0xbe00b5d8	-0.12569368
223	0xbf2f1772	-0.6839515
224	0xc08d2767	-4.41106
225	0x4068d1ef	3.6378133
226	0x404948e3	3.1450737
227	0x40a2243c	5.066923
228	0x410f209a	8.945459
229	0xbfafdf3f	-1.3740004
230	0xc057bfd4	-3.3710833
231	0x3efa5349	0.48891667
232	0xbdf0bb4b	-0.11754473
233	0xc215e482	-37.473152
234	0x3d17401f	0.036926385
235	0x3efe75df	0.49699304
236	0xbdb06191	-0.08612359
237	0x3ee8e6bc	0.45488536
238	0x3f6be715	0.9214948
239	0xbefe4648	-0.49662995
240	0xbea49e3d	-0.32151976
241	0x3da80df7	0.082057886
242	0x3f41ed4b	0.75752705
243	0xbed8c2ba	-0.42336065
244	0x3ebcd888	0.3688395
245	0xbed00da5	-0.4063541
246	0xbf470087	-0.7773518
247	0x3d354fd1	0.044265572
248	0x3f812200	1.0088501
249	0x3c17916e	0.009250982
250	0x3e86f5e0	0.26359463
251	0x3b9d5e4b	0.0048025004
252	0xbf1da685	-0.61582214
253	0x3d8be59e	0.068309054
254	0xbd91e5bb	-0.07123896
255	0xbe96d37d	-0.29458228

bias f4 [60]
0	0xc282a7bc	-65.32761
1	0xc2832f29	-65.59211
2	0xc284195e	-66.049545
3	0xc281fe85	-64.99711
4	0xc284afe7	-66.34356
5	0xc284922a	-66.28548
6	0xc28442a2	-66.13014
7	0xc2864a70	-67.145386
8	0xc2849128	-66.28351
9	0xc283027c	-65.50485
10	0xc285016c	-66.50278
11	0xc2849ecb	-66.31014
12	0xc2847572	-66.229385
13	0xc284838d	-66.256935
14	0xc283e4d2	-65.946915
15	0xc2838409	-65.75788
16	0xc284e8e0	-66.454834
17	0xc284c972	-66.39345
18	0xc283f87e	-65.98534
19	0xc2838f3c	-65.779755
20	0xc2843849	-66.10993
21	0xc2840ff4	-66.03116
22	0xc285444c	-66.63339
23	0xc2849057	-66.28191
24	0xc284aab2	-66.33339
25	0xc28445a0	-66.13599
26	0xc285b455	-66.85221
27	0xc2855829	-66.67219
28	0xc285975f	-66.79565
29	0xc2859640	-66.79346
30	0xc2856745	-66.7017
31	0xc285e14c	-66.94003
32	0xc28555d4	-66.66763
33	0xc2884f5f	-68.15502
34	0xc287b183	-67.8467
35	0xc286f791	-67.48353
36	0xc28efc23	-71.492455
37	0xc2919745	-72.79545
38	0xc28f471c	-71.638885
39	0xc289b1f5	-68.84757
40	0xc2905a11	-72.17591
41	0xc290dd83	-72.43264
42	0xc28fe91a	-71.95528
43	0xc292fdd6	-73.49577
44	0xc290a285	-72.31742
45	0xc291cd51	-72.90101
46	0xc2924969	-73.14338
47	0xc29077d3	-72.23403
48	0xc28fd8a9	-71.923164
49	0xc290359a	-72.10469
50	0xc2908b30	-72.27185
51	0xc290d534	-72.41641
52	0xc29168e5	-72.70487
53	0xc291c8fc	-72.89255
54	0xc2922c0c	-73.08603
55	0xc290275b	-72.076866
56	0xc293777c	-73.73337
57	0xc2915de7	-72.6834
58	0xc292a2fc	-73.31833
59	0xc295add0	-74.83948
