mdp.pth (torch, 6703 bytes, 7 tensors)

weight f4 [60, 5]
000000 0f 0c 3d 3e 9b 75 cb bf b8 43 0f 40 1e 56 c4 c0
       0.18461631 -1.5895265 2.2385082 -6.1355124
000010 e5 c8 40 c0 9d f1 bd 3f 9a 89 25 bf 81 a2 a9 3f
       -3.0122616 1.483936 -0.6466309 1.3252717
000020 25 01 e5 bf 5d 4b ba bf 51 68 1f 40 bf ec 18 3f
       -1.7890974 -1.4554249 2.490742 0.59736246
000030 ab c6 0a 40 5f df 9a bf 1a a5 96 3f 22 b4 fe 3b
       2.1683757 -1.2099417 1.1769135 0.0077729383
000040 a2 fb a8 bf 14 ef 26 3e 01 53 8b be 70 b4 8b bc
       -1.3201792 0.16302139 -0.27211764 -0.017053813
000050 ca 41 97 3f 37 ba ae bf fd 94 b4 be 44 08 a8 bf
       1.1816952 -1.3650578 -0.3526992 -1.3127522
000060 83 7d f4 bf 9f d6 d7 3e 79 4e 12 40 2d be d9 be
       -1.9100803 0.4215593 2.2860396 -0.42527905
000070 e0 83 b4 be ba bd b8 3e aa 7f ce 3e a9 02 01 bf
       -0.35256863 0.3608225 0.40331775 -0.50394684
000080 0e 33 19 40 af ae f8 3f f2 eb 56 3f 93 1b 3a 3e
       2.3937411 1.9428309 0.83953774 0.18174581
000090 58 73 e5 3e 9d f0 2c 40 c5 72 2c bf 74 27 f1 3d
       0.44814563 2.7021859 -0.67362624 0.11775103
0000a0 89 18 8d 40 89 ab f3 3e de f2 b5 be e6 2e 34 c0
       4.409245 0.47591808 -0.35536855 -2.8153625
0000b0 84 c0 04 bf c6 7e 0e 3e af c5 53 3c 8d 57 9a 3e
       -0.51856256 0.13915548 0.012925549 0.3014492
0000c0 e6 8a b4 3f 0f a9 5c 3f 81 7e d9 bf e9 47 ce 3f
       1.4104888 0.8619546 -1.6991731 1.6115695
0000d0 c0 57 50 bf f9 ce 8c 3f e4 04 cd bf 73 b9 91 3c
       -0.81383896 1.1000663 -1.6017118 0.017788624
0000e0 70 96 a2 3f 07 02 55 bf 46 49 99 3e 40 ce 80 3e
       1.270216 -0.8320622 0.29938716 0.25157356
0000f0 b1 14 3e bf 02 0c 6f bf 23 19 bf 3d be 3e 33 bf
       -0.7425032 -0.933777 0.09330966 -0.7001761
000100 26 05 98 bf 9c 92 1f 3d e6 33 f0 3f 17 11 80 bf
       -1.1876571 0.038958177 1.8765838 -1.0005215
000110 6f 53 41 bf c8 d0 82 bf 6f 13 a8 3e 94 90 d4 bf
       -0.75517935 -1.0219965 0.32827327 -1.6606622
000120 50 18 c0 bf ff 45 82 bf 3a db 76 3f 82 c7 1d be
       -1.500742 -1.0177611 0.96428263 -0.15408137
000130 90 f3 df bf 26 71 02 3e 91 4c 74 3e 2c a2 c3 3f
       -1.7496204 0.12738475 0.23857333 1.5283866
000140 dd 4e 00 c0 cb a7 b2 3f 07 67 ac bf df 8c 2a 3e
       -2.0048134 1.3957456 -1.3468941 0.166553
000150 03 d1 96 be 0a 4c a2 bf 4b df d0 bf d3 f5 7d bf
       -0.29456338 -1.2679455 -1.6318144 -0.99203223
000160 ac dd 24 c0 9f 9f c8 3f 46 b7 89 bf 14 61 5d 3f
       -2.5760298 1.5673712 -1.0759056 0.86476254
000170 82 8e 81 3f 62 ec 59 be 5b ba fb be 9e bc dd 3e
       1.0121615 -0.21281579 -0.49165615 0.43307966
000180 8e 1c 86 3e de 20 32 40 45 1f 15 3f ad 88 02 3f
       0.2619366 2.783256 0.5825084 0.509898
000190 7e 45 a4 bf f0 a7 e7 be 29 28 ab 3d 09 ba 1f bf
       -1.2833707 -0.45245314 0.08357269 -0.6239324
0001a0 ce b2 d3 bb ea e7 28 3f 5c b3 0f bf 26 32 6a bf
       -0.006460524 0.6597887 -0.56133056 -0.9148277
0001b0 fa a5 c0 3f 78 3a 87 3f 23 11 01 3f ac 95 7b bf
       1.5050652 1.0564718 0.50416774 -0.98275256
0001c0 88 b6 e6 3f 6b 0d 87 c0 ba f0 aa bf 1a 86 1a c0
       1.8024454 -4.220388 -1.3354714 -2.414435
0001d0 c0 44 f1 3e dd 06 6b bf 93 c5 c4 3f cf 4a d8 3e
       0.47122765 -0.9180735 1.5372795 0.42244574
0001e0 00 2e 09 c0 02 ed f5 3f 2a 94 ff 3e aa 5d 40 3f
       -2.1434326 1.9212954 0.49917728 0.7514292
0001f0 5e aa 25 bf 44 1c a7 bf 79 e0 f9 bf 4d 51 ae bf
       -0.64713085 -1.3055501 -1.9521629 -1.3618561
000200 8d e6 2b 3f 6d 1a 2a 3f c5 5b c8 3f 09 be 38 3f
       0.6714867 0.6644657 1.5653006 0.7216497
000210 0e 89 0e 40 7e 43 2f bf 69 b8 69 bd 4f b6 ea bf
       2.2271152 -0.6846236 -0.057060633 -1.8336886
000220 8e e6 f9 3f d0 16 70 bf 51 76 59 3f 4c 06 24 bf
       1.9523485 -0.9378481 0.8494616 -0.6407211
000230 50 0a 97 bf f8 8d 3d 3f db 55 1c 3f 55 9b c8 3f
       -1.1800022 0.7404475 0.61068505 1.5672404
000240 c9 4a 1f be eb e6 d1 bf b0 26 9e bc 79 26 ba be
       -0.15555872 -1.6398596 -0.019305557 -0.36357477
000250 b5 7b 45 3f 91 f9 1a 3d 6b 6c 3c c0 06 21 be bd
       0.77141887 0.03783566 -2.9441173 -0.092836425
000260 c1 fc 86 be ad 8f 15 40 78 0a 29 bf 06 b2 8c bd
       -0.2636471 2.3368943 -0.660316 -0.06869893
000270 45 d5 e1 be e9 81 11 3f 24 12 fb 3e 25 bc 18 bf
       -0.44108024 0.5683885 0.49037278 -0.59662086
000280 5e 80 53 c0 5f 92 6d 3f 63 37 f8 bf 94 98 81 be
       -3.30471 0.9280147 -1.9391903 -0.2531172
000290 8d b6 64 bf f2 f9 0a 3f db 37 92 bf 4f 2a 59 bb
       -0.8934105 0.54287636 -1.1423296 -0.003313679
0002a0 8f d8 98 bd 94 ae f5 3f 96 8e 01 40 e5 8b a3 bf
       -0.0746318 1.9193902 2.0243278 -1.2777067
0002b0 0e 0a dd 3f 72 1c 38 bf 37 8e b3 bf 95 d3 be 3f
       1.7268693 -0.71918404 -1.4027776 1.490832
0002c0 ca 4f 16 40 ea 3b 88 3e e0 b2 bb bf e5 e9 8d 3f
       2.34862 0.2660821 -1.4663963 1.1087004
0002d0 f0 9b 90 be 37 d6 94 bf b6 93 7b bf a5 02 5e bf
       -0.2824397 -1.1627873 -0.98272264 -0.86722785
0002e0 ad 52 a7 3d 83 99 5f be 44 a7 a7 bf c1 f4 26 3f
       0.08170066 -0.21835904 -1.309792 0.65217215
0002f0 44 05 69 3f b7 e7 02 40 20 4f 16 c0 f9 e4 90 be
       0.9102366 2.0453928 -2.3485794 -0.28299692
000300 35 92 86 be 05 a6 a4 bf cb 04 2b bf dc 0f c8 3e
       -0.26283422 -1.2863165 -0.6680419 0.390746
000310 10 19 f3 3f 65 64 2e bf e9 d1 25 40 c3 19 bf 3f
       1.8992023 -0.6812194 2.590937 1.4929737
000320 b4 aa b9 3f 7b 86 98 be f3 a8 86 ba 38 69 ca bf
       1.450522 -0.297901 -0.001027374 -1.581336
000330 05 5f 06 bf 10 6a 1d 3f 10 b7 03 bf c1 32 9d 3f
       -0.5248874 0.61489964 -0.51451206 1.2281114
000340 6b 8f 09 3f 5e eb 61 bf f9 c2 dc 3f 17 c3 b8 bf
       0.53734463 -0.88249767 1.7247001 -1.4434537
000350 f5 3f 7d 3f c9 4e 4c 3d b5 72 ce 3e 0d 0d ce 3e
       0.98925716 0.049879823 0.4032189 0.40244332
000360 b1 a5 56 bf c6 89 16 c0 d4 1e e0 3f 96 e3 84 3d
       -0.83846575 -2.352159 1.7509408 0.06488721
000370 f0 5e 06 3e ee a6 f0 be 73 a7 3c bf f5 bb 5f bf
       0.13122153 -0.47002357 -0.7369301 -0.87396175
000380 37 72 99 bf 1e 13 37 3e 9b 2a d9 3f d4 57 eb bf
       -1.1987981 0.17878386 1.6966127 -1.8386178
000390 9b 15 6f bf f7 8f 92 bf 55 8c cf 3e 5f b4 83 be
       -0.9339234 -1.1450185 0.40536752 -0.2572355
0003a0 4b de 1a c0 9e 86 aa be b1 b9 83 3f 2c f3 89 3f
       -2.4198177 -0.3330583 1.0291044 1.0777335
0003b0 e8 7b 1a bf 9e 6c f0 3f cb 3f 3b 3d 72 3a e6 bd
       -0.60345316 1.8783147 0.045715135 -0.11241616
0003c0 ac b5 1c bf 20 4c e7 3f 70 f7 ac 3e 41 13 31 3f
       -0.6121471 1.8070107 0.3378253 0.69170004
0003d0 a7 dc 80 bc 62 78 5c bf b6 95 80 bd b0 a7 3e bf
       -0.015730215 -0.8612119 -0.06278555 -0.7447462
0003e0 7e 5a d1 bf c7 30 28 be c9 80 07 40 93 57 1e bf
       -1.6355741 -0.16424857 2.1172354 -0.6185238
0003f0 51 2b 1c 3f 6a ea ec bf d7 63 9f 3f 0a 24 da 3f
       0.61003596 -1.8509037 1.2452344 1.7042248

weight_ih_l0 f4 [10, 5]
000000 c3 c6 92 bf 49 75 08 3f 4a 27 6f bf 58 93 62 3f
       -1.1466907 0.5330396 -0.93419325 0.8850608
000010 32 e0 11 3f f5 f6 4d 3f 77 6f 84 3e 37 00 15 3f
       0.5698272 0.8045495 0.2586629 0.5820345
000020 5c 68 1a bf f6 87 09 be 4f 8e ab be 8c f3 c2 3f
       -0.6031549 -0.13430771 -0.3350701 1.5230575
000030 64 d9 01 3f fd b6 ce 3e 6d 7b fa 3e bc ea 79 bf
       0.50722337 0.40373984 0.4892229 -0.976238
000040 da 1f 64 3f 1a 4c 41 be 58 68 74 3f dc 5d 20 3e
       0.891111 -0.18876687 0.95471716 0.15660805
000050 dd c4 a5 bf 4a 73 87 3f c9 72 96 be cb a4 4a 3f
       -1.2950703 1.0582058 -0.2938445 0.79157704
000060 9d 8d bb 3d 7e dc bc 3f e3 3e 81 bf 2c db 99 3e
       0.0915787 1.4754789 -1.0097317 0.30050027
000070 ac f4 1b bf e6 99 c4 be de d2 cc 3e a9 f7 9f 3f
       -0.60920215 -0.38398665 0.4000463 1.2497455
000080 2a f0 4e 3f 2f 00 b3 3c 14 d8 b2 bd 10 98 bd bf
       0.8083521 0.021850673 -0.0873262 -1.4812031
000090 88 c4 50 3f b1 5c 3e be d2 bb c4 3e 2d 98 6c 3d
       0.8154988 -0.18590046 0.38424546 0.057762314
0000a0 cf 3b 4d 3f 37 2d a3 bf 6e cc cb bd af ff 51 bf
       0.80169386 -1.2748173 -0.09951101 -0.8203077
0000b0 cf 05 1f bf b2 5a ce 3f 27 e4 ad 3e 20 16 41 3f
       -0.6211824 1.6121428 0.3396313 0.75424385
0000c0 e5 35 18 3f c8 70 8b 3f
       0.59457237 1.0893793

weight_hh_l0 f4 [10, 10]
000000 ef 0f d2 3d 57 bb 8d bb 90 60 25 be 7d 75 6e be
       0.10256945 -0.004325311 -0.16150117 -0.23287006
000010 df 00 40 3e 41 5f c9 3d c8 99 37 be 4a a5 c1 bd
       0.18750332 0.09832621 -0.17929757 -0.094553545
000020 36 8e af bc dc ad ca 3d 7f ec 51 be 10 89 2a be
       -0.021430116 0.09896442 -0.20500372 -0.16653848
000030 2b 76 8b be 8b 04 57 bd a9 5c cf bd ba 67 9b 3d
       -0.27238593 -0.052494567 -0.101250954 0.07588144
000040 aa cf eb bd 42 6f 37 be e2 b0 33 3e 79 9e 81 3d
       -0.11514218 -0.17913535 0.17547944 0.063290544
000050 9b de 8e 3e 8d 59 82 3e 42 6d 75 3e 47 43 17 3d
       0.2790421 0.25458947 0.2396746 0.036929395
000060 91 d8 53 be 18 59 61 3e 4b ce 7c be 18 fb cc 3d
       -0.20688082 0.22006643 -0.2468807 0.1000883
000070 ba f2 a1 bd 44 50 3d 3e dd 3a cc 3d 68 34 89 3e
       -0.079076245 0.1848765 0.09972165 0.26797795
000080 1a 08 b7 3b af 3f 23 3e 28 85 2d 3e 5b f4 50 3e
       0.0055856826 0.15942262 0.16945326 0.20405714
000090 77 b3 a1 be 51 a2 40 be 3d f2 0f be 3d 36 30 be
       -0.31582233 -0.18811919 -0.1405725 -0.1720819
0000a0 7b dd 11 3d 0b 21 f1 3d 59 12 f6 3d 8a b4 40 be
       0.03561161 0.117738806 0.12015218 -0.1881887
0000b0 b8 dc 06 bd 83 49 8c 3e 81 a9 67 be 27 0b 9d be
       -0.032925338 0.27399835 -0.22623254 -0.3067257
0000c0 d2 2b 01 3e 9f 4a 9f 3e cf a6 31 be 66 e6 8e 3e
       0.12614372 0.3111162 -0.17348789 0.27910155
0000d0 0b b6 45 be bd 3a 34 3d 8b 41 28 bc 5d 48 8c 3e
       -0.19307725 0.04400133 -0.010269533 0.2739896
0000e0 9f f5 29 bc 02 39 3c bd b5 2f 54 3e 54 bf 1c bd
       -0.010373502 -0.045952804 0.20721324 -0.038268402
0000f0 82 aa 55 3d 23 d9 00 3e 5b a6 99 be 87 a8 3c 3e
       0.052164562 0.12582831 -0.30009732 0.18423663
000100 8c 85 96 be c2 5a 4b 3e d5 02 27 3e 84 a1 a8 bc
       -0.29398763 0.1985884 0.16309674 -0.02058483
000110 3f de aa 3d d4 95 6a 3e ad 17 39 3e 2a 07 8c be
       0.08343171 0.22908717 0.18075438 -0.27349216
000120 88 ca 5f be e4 f1 80 3e e9 2d 3f be 9a d1 81 bd
       -0.21854603 0.25184548 -0.18669857 -0.063388065
000130 6e a4 95 3e fa 66 a2 3d 5a 70 96 bd f6 df dd bc
       0.29227012 0.079297975 -0.07345648 -0.027084332
000140 71 25 73 3d 8d 63 39 3e e3 b6 bc 3d 88 e4 39 be
       0.05936188 0.18104382 0.092145704 -0.18153584
000150 0b bb 9d 3d 86 c4 71 be 4d e8 8e 3e 78 dc 82 be
       0.07701691 -0.23610124 0.27911606 -0.2555883
000160 12 66 96 3e ba 72 96 3e 18 4b 04 be 44 dd 92 be
       0.29374748 0.29384404 -0.12919271 -0.28684437
000170 b3 7f 55 bc 08 c1 52 be 10 16 57 be 7f 70 31 bd
       -0.013030934 -0.20581448 -0.2100451 -0.043320175
000180 6a bb 51 3e 74 a1 83 be 76 d6 84 3e 15 e2 12 be
       0.20481649 -0.25709116 0.2594487 -0.14344056

bias_ih_l0 f4 [10]
000000 8a d4 84 3f b0 b3 22 bf 09 3d 6b 3f ec c6 42 3f
       1.0377362 -0.6355543 0.9189001 0.7608478
000010 06 5b 5b 3f 12 9b 8f bf 78 4a 2a 3f f2 39 9d 3f
       0.85685766 -1.1219199 0.6651988 1.2283309
000020 61 a4 64 bf ea f9 0e bf
       -0.8931332 -0.5585009

bias_hh_l0 f4 [10]
000000 24 34 38 3f a5 eb 25 bf 00 b3 ab 3f b7 49 6c 3f
       0.7195456 -0.6481269 1.3414001 0.9229998
000010 2b 4d 9a 3f 96 ce 48 bf 80 84 4c 3f 2b e1 66 3f
       1.20548 -0.78440225 0.7988968 0.9018733
000020 c0 92 8e bf 74 33 01 bf
       -1.1138535 -0.50469136

weight f4 [60, 10]
000000 4a 62 ad 3f e4 e2 8a bc f0 6c af 3d ed d1 f2 3d
       1.354562 -0.016953893 0.085657 0.118564464
000010 d8 a0 19 3f ca 92 fd be 61 54 ce 3f 62 6c 95 3f
       0.60011053 -0.49526054 1.61195 1.1673701
000020 9f 77 32 40 60 ac 83 bd 63 01 df 3e ac 29 a6 bd
       2.788551 -0.06429362 0.43555745 -0.08113417
000030 2d f5 19 bc 5a 56 9e 3e 57 e1 9c bd 92 28 31 3e
       -0.009396833 0.30925256 -0.07660168 0.17300633
000040 c5 98 34 3b 57 42 a1 3f 82 99 4d 40 f9 a1 0a 3f
       0.0027556878 1.259837 3.2124944 0.541534
000050 37 b4 74 3f 29 0f b3 3d af 8b 01 be 19 e8 69 be
       0.95587486 0.08743126 -0.12650941 -0.22842444
000060 75 29 33 be e4 b1 7e bd f7 02 ee bd 74 97 d5 3f
       -0.17496283 -0.06218137 -0.11621659 1.6686845
000070 3f ee 9e 40 c9 65 39 3e 0f 0f a4 c0 df 5f b8 40
       4.966583 0.18105234 -5.126838 5.761703
000080 9f 41 ac c0 f8 a7 b1 40 05 d7 a0 40 0d 0a a9 40
       -5.3830104 5.551754 5.0262475 5.282477
000090 70 a0 91 c0 53 eb 9e c0 b8 f3 7e 40 c0 b3 c9 40
       -4.5508347 -4.966226 3.9836254 6.303192
0000a0 26 b4 0e 3f 12 8e 7c 3d d9 88 b2 be 3f c0 c8 3c
       0.55743635 0.061658926 -0.3487003 0.024505733
0000b0 90 a0 14 bd f0 96 f4 3e 70 40 53 bf 90 bf bb 3f
       -0.036285937 0.47771406 -0.825202 1.4667835
0000c0 c7 98 60 40 e4 54 b2 3e 27 5c b4 bf bc ca a2 3e
       3.5093248 0.3483039 -1.4090623 0.317953
0000d0 49 5a 32 bd 7f 2e 84 3e d3 29 7f 3f 03 d0 98 3e
       -0.043543134 0.25816724 0.99673194 0.298462
0000e0 45 70 62 3e b2 d7 7a c0 08 05 f8 bf 82 9e 90 be
       0.2211314 -3.919415 -1.9376535 -0.28245932
0000f0 c8 04 77 bf 77 9c 92 be 22 88 aa 3e c7 64 15 bc
       -0.9649167 -0.28634998 0.33306986 -0.0091182655
000100 8e 80 c8 3e 75 71 98 3d 5c 74 84 be cb ce 21 c0
       0.3916058 0.07443515 -0.25870025 -2.5282466
000110 b6 3a 12 c0 68 32 bc 3d 00 21 fa bf e9 d3 82 3e
       -2.2848334 0.09189302 -1.9541321 0.255523
000120 bf db 84 bd cd 7c eb 3e be 2f 70 3f 5a 50 0d bc
       -0.06487226 0.45993653 0.9382285 -0.008625114
000130 bc e3 ae bd 63 10 b8 c0 39 a9 32 c0 31 b8 a3 be
       -0.08539531 -5.7520003 -2.7915785 -0.31976464
000140 ba 27 4a 3f 14 9d e9 3d 2d 41 34 bf f0 bd d3 3e
       0.7896687 0.114069134 -0.7041195 0.41355848
000150 3c b6 21 bf ba 7e 5d 3d c5 5d 51 bf 45 1e 09 40
       -0.6316869 0.054075934 -0.81783706 2.1424725
000160 d9 74 c0 40 02 84 29 3f 46 37 95 c0 7e 78 ba 40
       6.0142636 0.6621705 -4.6629972 5.8272085
000170 70 5c a8 c0 6e bb ad 40 32 a3 a2 40 18 3d a0 40
       -5.261284 5.4291296 5.0824213 5.0074577
000180 2a 45 98 c0 0e 57 92 c0 fe 66 8d 40 34 5f c1 40
       -4.758443 -4.573127 4.4188223 6.0428715
000190 93 b2 16 bf fa 50 a3 3e f5 e8 94 bd bd ea dc 3e
       -0.5886623 0.31897718 -0.072709955 0.4314784
0001a0 13 16 9a 3e f9 a7 f5 3e 83 c7 db bd b6 96 6e bf
       0.30094966 0.47979715 -0.10731413 -0.93198717
0001b0 cc 0c 54 bf b0 b5 59 3e 02 3f c4 be c1 f3 29 3e
       -0.82832026 0.21260715 -0.3832932 0.16596891
0001c0 cb 92 31 be 50 77 80 3e 70 a6 78 3f c4 9d 73 bd
       -0.17341153 0.25091028 0.97128963 -0.05947663
0001d0 6f 2a b5 3e 3c 74 f0 bf 75 a9 a8 be 3d 4b e4 bb
       0.35383937 -1.8785472 -0.32941785 -0.006966977
0001e0 1c 20 9d c0 2e 26 ac 40 9a 63 b0 c0 81 65 b0 40
       -4.9101696 5.3796606 -5.5121584 5.5123906
0001f0 fc e8 a0 40 82 d8 a4 40 5f 3f a1 c0 28 96 97 c0
       5.0284405 5.151429 -5.0389857 -4.7370796
000200 c7 0b 8f 40 b8 2b c7 40 81 ec d6 bf 6b e3 c7 3d
       4.4701877 6.2240868 -1.6790925 0.097601734
000210 a8 51 22 be f5 85 9d 3d f5 19 8a 3d c5 7e cb 3d
       -0.15851462 0.07691566 0.06743232 0.09936289
000220 b1 37 61 bf 21 4c 09 c0 f8 2f b4 bf 58 f0 91 3d
       -0.87975603 -2.1452715 -1.4077139 0.0712592
000230 e8 cf 9c c0 45 c3 ad 40 ad bb a0 c0 e8 46 af 40
       -4.900379 5.4300866 -5.0229096 5.4774055
000240 06 67 96 40 6b 0f a7 40 d8 4a a0 c0 76 ac 8f c0
       4.700076 5.220632 -5.009136 -4.4898024
000250 c8 17 8b 40 80 0f c4 40 ac ee 9f c0 e5 78 a7 40
       4.346653 6.126892 -4.9978848 5.2335076
000260 b9 11 ad c0 a7 b6 b1 40 56 d6 a5 40 05 be a1 40
       -5.4084134 5.5535464 5.182414 5.0544457
000270 cc 5e 9a c0 dc cf 98 c0 9d d9 8a 40 6c 9e c3 40
       -4.824072 -4.7753735 4.339064 6.1130886
000280 39 ce 86 bf 1f 8b 07 3f b9 87 ad be ad 86 02 3f
       -1.0531684 0.52946657 -0.3389261 0.5098675
000290 8d 65 59 3e 62 5e 21 3f 99 c7 cb be eb 4c d2 bf
       0.21230145 0.6303464 -0.39800718 -1.6429724
0002a0 13 27 68 bf c1 44 4a bd 5e 84 ce bf f6 00 5c 3e
       -0.9068462 -0.049381975 -1.6134145 0.21484742
0002b0 f8 d4 8f be 9f ee 0b 3f 65 30 80 3f f7 0c a1 3e
       -0.2809217 0.5466098 1.0014769 0.31455204
0002c0 a2 0f 31 bd 65 8c 4c c0 21 9a 88 bf d4 e0 6f 3e
       -0.0432278 -3.196069 -1.0672036 0.23425609
0002d0 e8 6f a7 c0 e2 9e b0 40 fc 10 b1 c0 71 5f ba 40
       -5.2324104 5.519395 -5.5333233 5.8241506
0002e0 d9 4a a2 40 79 80 a9 40 78 40 9a c0 e8 ca 98 c0
       5.0716367 5.2969327 -4.8203697 -4.774769
0002f0 10 ed 83 40 f8 80 c4 40 70 43 a2 c0 3c db b7 40
       4.1226883 6.1407433 -5.070732 5.745512
000300 20 3e ad c0 33 4c b6 40 37 9f a6 40 92 37 a3 40
       -5.4138336 5.6968017 5.2069354 5.1005335
000310 c0 b0 96 c0 99 a9 93 c0 c4 31 94 40 e6 e3 bf 40
       -4.709076 -4.614453 4.631075 5.9965696
000320 00 9c 9e c0 96 da b3 40 0c 6c ae c0 c4 b8 b6 40
       -4.956543 5.620433 -5.4506893 5.7100544
000330 6b 8b a6 40 2c 33 a6 40 09 30 9e c0 50 16 95 c0
       5.204519 5.1937466 -4.9433637 -4.6589737
000340 0c ee 89 40 9a f2 c4 40 bc 42 a4 c0 fc dd b6 40
       4.3103085 6.1546144 -5.1331463 5.7145977
000350 e8 44 ae c0 b3 18 b4 40 15 55 9d 40 49 63 a9 40
       -5.4459114 5.628015 4.916636 5.29337
000360 e0 13 9d c0 1e 66 97 c0 cf 84 82 40 57 ae cb 40
       -4.908676 -4.7312155 4.078712 6.3650317
000370 fd c8 a5 3f e0 3e f2 3d 38 3e 02 bf d9 94 61 be
       1.2951962 0.11828399 -0.5087619 -0.22029437
000380 4b 32 c6 bf e1 d7 bd 3e aa b3 96 bf ff 42 62 40
       -1.5484098 0.37078765 -1.1773579 3.535339
000390 a2 a7 05 41 f7 85 83 3e 48 18 86 bf a8 95 ce 3e
       8.353426 0.25688145 -1.047616 0.40348554
0003a0 4e 99 23 bf 4a 21 51 3f a5 5a 18 3f 01 21 fe 3e
       -0.639058 0.8169142 0.5951331 0.49634555
0003b0 32 dd 5f be 11 1c f9 bf 9e 20 80 bf 30 8b ae 3e
       -0.21861723 -1.946169 -1.0009954 0.34090567
0003c0 56 d1 21 bf 49 44 07 3f 52 cb 27 bf dc 0e 0d 3f
       -0.63210046 0.5283857 -0.6554462 0.551008
0003d0 27 ae e7 3e 4e 17 2e 3f 5c 1f 9c bf 71 00 c8 bd
       0.45250055 0.6800431 -1.219707 -0.09765709
0003e0 45 bc 8a 3f fe 1c 6d 3e 83 97 96 c0 60 aa b6 40
       1.0838705 0.23155591 -4.705995 5.7082977
0003f0 1b b7 b0 c0 e5 be ac 40 ef 00 9b 40 50 a2 aa 40
       -5.5223517 5.3983026 4.843864 5.3323135

bias f4 [60]
000000 0a b7 ed 3c 7f 95 20 be 59 b5 b0 be 66 a4 d1 c0
       0.029017944 -0.15682028 -0.34513357 -6.551318
000010 fc 3b 18 bf 24 7c f3 3d ff 4a 50 bd 7d b4 5a 3c
       -0.5946653 0.11888912 -0.05085277 0.013348696
000020 e0 23 d5 bd 4b 28 dc c0 dd ca 80 be 23 16 cf 3c
       -0.10407233 -6.8799186 -0.25154772 0.02527911
000030 b5 48 d6 c0 7a d1 d2 be fb 44 de c0 8b 3d dc c0
       -6.6963754 -0.41175443 -6.9459205 -6.8825126
000040 5b 74 fe be d3 63 94 be dc a8 d0 c0 6d 2f d5 c0
       -0.49698147 -0.2898241 -6.5206127 -6.6620393
000050 19 13 d2 c0 3a 97 ce c0 73 74 9c be 1e 52 c7 be
       -6.5648313 -6.4559603 -0.30557594 -0.38929838
000060 76 1c 1b bf 22 d9 db c0 c3 78 2a be c2 d7 19 bf
       -0.605903 -6.8702555 -0.1664763 -0.60094845
000070 3e 3c 5c be a5 19 96 be 99 31 fa be 37 35 95 be
       -0.21507356 -0.2931644 -0.48865965 -0.29142162
000080 ec 23 22 bf a5 de d2 be 83 ab 1f bf 03 08 28 bf
       -0.6333606 -0.4118549 -0.6237108 -0.65637225
000090 f3 28 d5 c0 b2 84 d2 c0 b5 e1 d1 c0 4c cf bb bf
       -6.6612487 -6.578698 -6.558802 -1.4672637
0000a0 1e 61 dd c0 49 8b d8 c0 a8 32 d8 c0 ac 42 d6 c0
       -6.918105 -6.7670026 -6.7561836 -6.6956387
0000b0 73 76 d8 c0 c1 db dc c0 69 89 d8 c0 ad 6d d9 c0
       -6.764459 -6.9018254 -6.7667737 -6.794638
0000c0 19 8f d8 c0 38 b0 d3 c0 ba 58 db c0 4d 18 d9 c0
       -6.767468 -6.615261 -6.854581 -6.7842164
0000d0 7f d4 d7 c0 02 ab d4 c0 82 1e d5 c0 73 8d e0 c0
       -6.7446895 -6.645875 -6.659974 -7.0172668
0000e0 de 0e dc c0 6b f4 d2 c0 28 8b d7 c0 1d 3b dc c0
       -6.876815 -6.592336 -6.735737 -6.882216
