mdp.pth (torch, 99183 bytes, 7 tensors)

weight f4 [60, 50]
000000 81 8c 3a 3e 3b 24 30 3f 90 a0 26 3f 45 b0 d7 be
       0.1821766 0.68805283 0.6508875 -0.4212667
000010 b9 81 83 3e 4a 1c 51 3f 97 a5 96 bd 72 a4 aa 3f
       0.25684908 0.8168379 -0.073558025 1.3331435
000020 38 cf b3 3f e6 cc a8 be 81 e8 52 bf 72 e2 c7 bd
       1.4047613 -0.32968825 -0.8238602 -0.09759988
000030 d5 ab 90 3f 7b e6 cc bf 7a f4 d2 3e d7 80 59 3e
       1.1302439 -1.6007837 0.41202146 0.21240555
000040 89 04 e8 3f 09 88 0a bf 57 c2 48 be 5d 5f 32 3e
       1.8126384 -0.54113823 -0.19605385 0.1741919
000050 76 53 d9 3e f8 9b 27 bf 7a dd 9a bf 71 a0 df 3f
       0.42446488 -0.65472364 -1.2098839 1.7470838
000060 89 c4 c2 bf 42 16 00 bf 78 42 a2 bf 65 9f 82 bd
       -1.5216228 -0.5003396 -1.2676535 -0.06378058
000070 5a 8e c3 3e 59 94 e7 3f 31 5d fc 3f b8 89 91 be
       0.38194543 1.8092147 1.971594 -0.28425384
000080 86 e2 81 bf d3 78 bd 3f aa e6 61 3e d9 69 13 3b
       -1.0147254 1.4802498 0.22060648 0.002249351
000090 53 25 9e 3f f3 e5 b2 be a7 47 9f bf cf 0c ac 3d
       1.235514 -0.34941062 -1.2443742 0.084008805
0000a0 6e be 69 3d 2c eb 0e 3d 6c eb 0f be a9 3c da 3f
       0.057066374 0.034892246 -0.1405465 1.7049762
0000b0 7f ca 07 c0 49 99 86 bf ce e9 c8 bd 5a 19 2a bf
       -2.1217344 -1.0515529 -0.0981022 -0.66444933
0000c0 7d 4a 99 3d a4 f8 c1 be 63 da bd bf af 71 4b c0
       0.07484911 -0.3788501 -1.4832271 -3.1788137
0000d0 f1 54 73 bf e8 d4 90 3f be f9 d8 3f 23 9f 0d 3e
       -0.95051485 1.1314974 1.6951215 0.13830237
0000e0 b4 f6 13 3d cc f8 93 3f 6c bd 3b bf 6c 4c af 3e
       0.036123946 1.1560302 -0.7333591 0.34237993
0000f0 12 92 c3 bf 88 2c a5 3e a5 85 e1 3d 86 b2 21 bf
       -1.5278952 0.32260537 0.11011819 -0.6316303
000100 8e 13 e0 bd fd 13 e6 3e c4 90 ab bf 56 a4 0b 40
       -0.1094123 0.44937125 -1.3403554 2.1819053
000110 78 42 d4 bf fd 81 16 3e 7e 50 25 bf 87 1c 41 be
       -1.6582785 0.14698024 -0.64575946 -0.18858539
000120 af 82 8d 3f 31 09 b1 3f 06 a7 91 3f d9 50 c1 bf
       1.1055506 1.383093 1.1379097 -1.5102798
000130 c1 39 94 3f 08 72 03 bf 99 02 87 bf bb f0 b1 3d
       1.1580125 -0.5134587 -1.0547668 0.08688494
000140 52 94 0c c0 84 98 95 3f b5 5c 73 3f ab ad 32 bf
       -2.1965528 1.1687169 0.95063335 -0.69796246
000150 d2 ff 63 3f 74 2a 43 3f 3a 96 81 3f e6 64 e8 be
       0.89062226 0.76236653 1.012397 -0.4538948
000160 2f 8f 9f 3e 2e 5d a7 be a5 28 5e bf a2 40 15 3f
       0.31163928 -0.32688278 -0.8678077 0.58301747
000170 ba 3b a9 3e 83 13 63 3e 27 60 95 bf f2 ad d0 bf
       0.3305338 0.22175412 -1.1669968 -1.6303084
000180 c0 cd 9c bf da 2a 9a be 30 52 d4 3c a6 41 d4 bd
       -1.225029 -0.30110818 0.025918096 -0.10364084
000190 8c fa 40 be 4f 53 b9 be 14 1f 41 3d ca 60 83 3f
       -0.18845576 -0.36196372 0.04714878 1.0263913
0001a0 5d 4b 92 3e aa 48 f2 bd b0 4d 0d bf 42 35 2c bf
       0.28573123 -0.11830266 -0.55196667 -0.67268765
0001b0 b6 c5 73 bf 40 3b 81 3f 22 1a 9f be 9b 23 ba 3e
       -0.9522356 1.0096207 -0.31074625 0.3635529
0001c0 90 11 61 3f 39 28 4c 40 79 0c d6 bf 74 9d df 3f
       0.87917423 3.189955 -1.6722556 1.7469926
0001d0 79 86 53 bf d6 20 9a be bc 26 a1 bf 9b 53 c9 3e
       -0.82627064 -0.30103177 -1.2589946 0.39321598
0001e0 ba 4d 12 be 48 4c a5 bf 6f c7 27 be d6 57 f8 3e
       -0.14287463 -1.2913904 -0.16384672 0.48504514
0001f0 46 d7 a3 3f 1b a7 19 3f df d5 79 bf 26 3a bc bf
       1.2800071 0.6002061 -0.97591966 -1.4705245
000200 b6 98 46 bf 3b b5 d4 be 3c 34 81 3f 81 93 83 3f
       -0.7757677 -0.41544518 1.0094066 1.027939
000210 b4 72 07 c0 db 90 c0 3f 99 7b 51 bf 95 7c 9a bf
       -2.116376 1.5044206 -0.8182922 -1.206927
000220 29 76 d3 be 6b cc 65 be 74 4c 0b be d3 b3 32 bf
       -0.41301087 -0.2244126 -0.13603383 -0.6980564
000230 38 91 2d 3f 4d d3 86 3f d4 55 3f 3d 68 24 06 40
       0.6779971 1.0533234 0.04671271 2.095972
000240 32 60 f0 be dc 79 23 bf 27 bf e7 bf 3d a9 71 3f
       -0.4694839 -0.6385782 -1.810521 0.9439886
000250 8d ff 0e bf 30 8a ab 3f a3 9a 3b bf 87 a4 51 bf
       -0.5585869 1.3401546 -0.7328283 -0.81891674
000260 39 ee ab be c4 2b cd 3e e6 34 1e bf ce 57 35 bf
       -0.33580187 0.40072453 -0.61799467 -0.70837104
000270 eb 16 bd bf 70 8b 4f 3f 12 7f d2 be f4 64 1b 3f
       -1.4772619 0.8107214 -0.41112572 0.6070092
000280 d7 47 08 3f 5c cf 92 3e 3b 34 47 bf cf f8 be bf
       0.5323462 0.28673828 -0.7781407 -1.491968
000290 43 98 01 bf ed 4c 98 3d 9d 25 8b 3f 95 65 10 bf
       -0.5062296 0.074365474 1.0870854 -0.56405
0002a0 ff 9d 88 bf 47 da 04 bf f9 d8 65 3f 18 7d 76 be
       -1.0673217 -0.51895565 0.897842 -0.24071157
0002b0 f9 cc 82 be 64 32 01 bf 6c 46 d5 bf a6 23 b5 3e
       -0.25547007 -0.50467515 -1.6662116 0.3537876
0002c0 3c 7d 1a be 8d 19 8f bf 67 8a c8 bd c5 52 25 bf
       -0.15086836 -1.1179672 -0.09792023 -0.6457942
0002d0 54 1d b1 3f b4 9a 93 be e2 49 6c be f8 b6 5d 3e
       1.3837075 -0.28828967 -0.23075059 0.21651828
0002e0 78 53 8c 3f f4 5c a9 3f 88 25 d2 3f b3 45 09 c0
       1.0962973 1.3231492 1.6417704 -2.144879
0002f0 fa 68 a6 bf f3 6c d4 bd 91 97 6e 3a 80 03 50 bf
       -1.3000786 -0.10372343 0.00091015646 -0.8125534
000300 4d 9c f2 bf 8f 86 22 bf dd 5f 67 3f 4c a8 13 c0
       -1.8953949 -0.6348657 0.9038065 -2.307147
000310 ad 38 35 bf 82 09 c8 3e 23 5e 21 3f c9 27 d8 be
       -0.70789605 0.39069754 0.63034266 -0.42217854
000320 f2 c8 2e be 95 2a 93 3c 23 1d 4c 3f 28 97 47 bf
       -0.17068842 0.01796464 0.7973196 -0.7796502
000330 e7 c7 66 3f 0f db 2b bf ae 61 57 be 0c 59 1a be
       0.90148777 -0.6713113 -0.21033356 -0.15073031
000340 df 72 1f bf 06 ac 3c 3f 60 67 83 bf 1b 95 45 bd
       -0.62284654 0.73699987 -1.0265923 -0.0482379
000350 2c 4e 84 bf cb b8 65 3d 0c 49 a9 3f f0 3c 94 3f
       -1.0336356 0.056084435 1.3225417 1.1581097
000360 d0 7b f3 bc 87 62 46 be 93 37 36 3f 60 70 12 3f
       -0.029722124 -0.19373523 0.7117855 0.5720272
000370 83 02 87 3f 98 8f 77 3e ce 8c 6f bd 28 44 e8 3f
       1.0547642 0.2417587 -0.05848389 1.81458
000380 3a 98 98 bf c8 45 27 bf c9 03 09 c0 9e aa 06 40
       -1.1921456 -0.6534085 -2.140856 2.1041636
000390 d1 2d 0b 3e 69 dc 08 3e b0 00 01 bf 6d 67 6f bd
       0.13591696 0.1336533 -0.50391674 -0.058448244
0003a0 6b 13 18 3f 27 e1 63 bf c3 33 4b 3e 30 e6 fc bb
       0.5940463 -0.8901543 0.19843964 -0.00771787
0003b0 b0 2e 6b be 7e 1c 3b bf 96 ed 44 bf 43 8b c2 bc
       -0.22967029 -0.7309035 -0.7692503 -0.023748046
0003c0 36 bf 71 bf 77 08 3c bd 89 1f b7 3e 76 6c bb 3f
       -0.9443239 -0.04590651 0.35766247 1.4642475
0003d0 b7 f2 f4 bf e5 a0 42 be a4 af 35 bf 9f 91 c8 3f
       -1.9136571 -0.19006689 -0.7097113 1.566944
0003e0 6f c3 2e 3e 7f 3d 58 3e 7c 0c 41 bf 02 51 a8 3f
       0.1706674 0.21117209 -0.75409675 1.3149722
0003f0 95 82 ec bd af 72 35 3f db 23 c3 3f c7 06 73 be
       -0.11548344 0.7087812 1.5245317 -0.23733054

weight_ih_l0 f4 [100, 50]
000000 13 28 ad bd 8d 75 00 3d ce 5b 80 3d 1d 94 39 3c
       -0.08454909 0.031362105 0.0626751 0.011326817
000010 fe ca ba 3d cb 64 42 3d 62 de c8 3c d2 fd 76 bd
       0.09120749 0.047459405 0.024520103 -0.060300656
000020 b9 98 a0 3d 5a c0 bc bd a8 1e 5e 3c c5 5f e4 3d
       0.078416295 -0.09216376 0.013557114 0.11151079
000030 aa 89 21 bd f8 59 84 bd 07 1c 87 3d 8e 52 95 3d
       -0.039437927 -0.06462473 0.06597143 0.07291137
000040 d5 1c de 3d b7 e3 a3 bd 36 26 08 bc 1e 7a 57 bd
       0.10845343 -0.080024175 -0.008309891 -0.052606694
000050 d2 aa c1 3b c0 e0 b2 3d f5 19 c2 bd e9 56 f6 3c
       0.005910256 0.08734274 -0.09477607 0.030070739
000060 7e 29 00 3d db 83 88 bd d5 af 8a 3d da d0 7b 3d
       0.03128957 -0.066657744 0.067718185 0.061478473
000070 f8 60 c9 bc f7 bd 1f bd 93 40 51 bd a0 fc 30 bd
       -0.024582371 -0.038999524 -0.051086973 -0.043209672
000080 78 a6 ea 3c bc a6 87 3d 42 98 17 3d b6 8c 13 be
       0.028643832 0.06623599 0.03701044 -0.14409146
000090 9c b0 c7 bd 1b cf a2 3d d3 62 05 3d 30 db 0e bd
       -0.097504824 0.079496585 0.03256495 -0.034877002
0000a0 11 98 c2 3a 6a 67 e2 bc 96 41 ce 3c b9 fa c3 bd
       0.0014846345 -0.027637202 0.025177758 -0.09569306
0000b0 69 c0 2f bd 5f 62 73 3d 1d e5 4c bd f9 9b cf 3b
       -0.042908106 0.059419986 -0.050023187 0.006335732
0000c0 70 a9 db 3c 24 14 a4 bd 48 83 44 bc c2 00 b7 bd
       0.026814193 -0.08011654 -0.0119941905 -0.089356914
0000d0 92 ee bd 3d 70 f8 9a 3d 13 e8 ba 3c df a7 88 3d
       0.09274019 0.07566917 0.02281574 0.06672644
0000e0 34 fd c7 3b 6b f1 0a 3d c0 86 0d 3d c4 0b 92 bc
       0.006103182 0.03392164 0.034552336 -0.017827876
0000f0 8e 12 9c bc a6 2b cb 3d 6a 5b ce bd 89 b9 02 bd
       -0.019051816 0.09920435 -0.100760296 -0.03191522
000100 44 20 b7 3d 67 a1 e9 bd fd 27 98 bc c7 bb 66 3b
       0.08941701 -0.11407738 -0.018573755 0.003520714
000110 4a 92 c1 bd 4f 9a a6 3d 30 fc ad 3d de 28 c9 3c
       -0.094517305 0.08134901 0.084953666 0.02455562
000120 fe 28 b4 3c ac f3 9d 3d ba b0 8d bd b6 26 9a bd
       0.021992203 0.07712492 -0.069184735 -0.07526915
000130 f7 97 9c bd 36 de df bc 78 d4 82 ba f4 7c d3 bc
       -0.076461725 -0.027327638 -0.0009981534 -0.025816418
000140 8c 79 16 bd 53 63 97 3d 3d 46 ae bc 1f 5e d1 bd
       -0.03673701 0.073919915 -0.021273727 -0.1022303
000150 26 d4 d4 bb 96 36 d9 3d 9a c3 02 3e de 4e 12 bc
       -0.0064950166 0.106061146 0.12769929 -0.008929936
000160 2f ef a3 3d b0 63 3e bd c5 cd 65 bd 6a da d5 3d
       0.08004605 -0.04648179 -0.05610444 0.1044205
000170 70 f5 42 3d af 53 56 bd ea 76 1c bd 5c 48 cc bd
       0.04759735 -0.0523259 -0.038199343 -0.09974739
000180 d3 dd 13 be 54 d6 c4 bd f1 11 10 bd b7 be aa bd
       -0.14440088 -0.09611192 -0.03517336 -0.08337157
000190 6f f5 ed 3b 72 e8 a8 bd c4 cd a0 3d e5 b4 15 3d
       0.007261924 -0.082474604 0.07851747 0.036549468
0001a0 fb d2 e1 3c 82 39 ca bd 13 f6 69 3d 80 aa 5f 3d
       0.027566424 -0.0987425 0.05711944 0.05460596
0001b0 3d a0 a3 bd af 84 19 3d d1 64 78 bb 7b 1d 02 3e
       -0.079895474 0.037480053 -0.0037901888 0.12706558
0001c0 cf 58 10 3c a0 46 31 3d 8b f9 f8 bc af c0 18 3d
       0.008810236 0.043280244 -0.030392429 0.037293132
0001d0 2e ae 39 3d ff 96 f6 3d 8f f5 04 be 23 8b e7 bb
       0.045332126 0.12040519 -0.12984298 -0.007066147
0001e0 e8 bf 00 be 3d 7e 37 bd 91 c0 b0 3d 73 b6 05 bd
       -0.12573206 -0.044798125 0.08630479 -0.0326447
0001f0 dd b7 e1 bd dc ac 1d bb 05 9c c9 bc 5d c7 6d bd
       -0.11021397 -0.002405933 -0.024610529 -0.058051456
000200 64 30 ab 3d 4d da a5 3d 01 27 28 bc c0 68 b8 bd
       0.08358839 0.08098278 -0.0102632055 -0.090043545
000210 53 78 b8 bc cc 94 9d 3d df 0e 23 be 88 cb cf 3d
       -0.022518313 0.076943964 -0.15923642 0.101462424
000220 b7 43 e9 bd 2e 33 bb bc d5 16 79 bd 5d 02 d8 3c
       -0.11389869 -0.022851553 -0.06081279 0.026368314
000230 04 97 19 bd 77 9a 81 3d 94 f3 d2 bd d9 90 1a 3e
       -0.037497535 0.0632829 -0.10300365 0.15094317
000240 2f 2f 31 bd 53 2a bf bd 84 a2 b8 bd 95 b5 a4 bb
       -0.04325789 -0.093342446 -0.090153724 -0.005026529
000250 bd 1d 74 3d 89 98 8e bd 51 10 be bd 3c 2e 4e 3c
       0.059598673 -0.069626875 -0.09280456 0.012584265
000260 73 40 a4 bc cd d6 b0 3d e2 84 48 3d 44 9b 6a 3a
       -0.020050263 0.0863472 0.048954852 0.0008949528
000270 c7 9b c6 bc 2c a3 99 bd ef c1 0d 3d a9 c3 34 bd
       -0.024244202 -0.07501826 0.034608778 -0.04413191
000280 98 29 d5 3c 93 c7 94 bb ee 52 aa bd c3 d5 c9 bc
       0.02602081 -0.0045403927 -0.08316599 -0.024638062
000290 50 1d 02 3e 44 a7 2e b9 6b 68 cc bc ef fa f5 bd
       0.12706494 -0.00016656244 -0.024952134 -0.120107524
0002a0 7d 18 d2 bb c9 be 41 3c 9b 94 8f 3c 0e df 5a 3b
       -0.0064116106 0.011825272 0.017526915 0.003339711
0002b0 47 ab 2c bc 73 32 9c 3d b6 6d d8 3d 6b 81 89 bd
       -0.010538883 0.0762681 0.10567801 -0.06714138
0002c0 ed 1e 3d bd 15 ff 16 bd c2 cd 29 be 5a 08 0c bc
       -0.04617207 -0.03686436 -0.16582397 -0.008546913
0002d0 0a 8a 1d 3d fa 35 d5 bc ef bb c4 3d 1e 23 0c bd
       0.038461722 -0.026026715 0.09606158 -0.034213178
0002e0 d8 3d c6 bb 0a 56 0d be 16 88 7a 3d 5c 2f a8 bc
       -0.006049853 -0.13802353 0.061164938 -0.020530395
0002f0 37 42 db 3d 81 a3 6c 3d 13 5a 49 3e 56 6b bc 3c
       0.10705989 0.057773117 0.19663267 0.0230004
000300 1f 77 80 3d 49 3f d1 3d 38 05 c0 3b d0 76 de 3c
       0.062727205 0.10217149 0.005859997 0.027156264
000310 2a 94 1c 3d f7 06 df 3d 64 4e 15 bc 47 be c0 bb
       0.038227238 0.1089 -0.009112928 -0.005882058
000320 e2 eb da bc 58 10 95 3d 33 a3 5e bd c1 fd 4e bd
       -0.026723806 0.07278508 -0.054354858 -0.050534967
000330 f6 ff ca bc 64 fa 04 bd b7 5d f2 bc ea 35 95 3d
       -0.024780255 -0.032465354 -0.029585702 0.07285674
000340 9c 7a 8c bd c5 3f 7e 3d c6 cb 73 3b ae 7a 9b 3d
       -0.068593234 0.062072534 0.0037200316 0.07591759
000350 aa 83 7d bd 8d 7d 5a 3d 8e e1 1a bd 61 9a 47 bd
       -0.061893143 0.05334239 -0.037812762 -0.04873121
000360 97 c5 a3 3d 9d 0e 45 3d 03 35 e6 bd 3f c3 ac bd
       0.07996672 0.04810964 -0.1124058 -0.08435678
000370 6c af ba bd 9f 16 cf bd 6c 3d 0d bb e3 f7 a3 bc
       -0.0911549 -0.101117365 -0.0021551503 -0.020015663
000380 77 a5 ab 3c 11 67 81 bd 77 27 46 3c c1 b6 28 be
       0.020952923 -0.063184865 0.01209437 -0.16475965
000390 c4 4b ad 3d 6f 51 31 bd df d1 a0 3c be 31 7c bd
       0.08461717 -0.04329055 0.019631324 -0.061570875
0003a0 cb 7f 2a bd 60 03 f8 3d 19 1a 52 3d ff dc 5b 3c
       -0.04162578 0.12110019 0.05129442 0.013419389
0003b0 4b e5 2c 3d d3 e5 dc 3c 72 85 0a bd 74 a2 82 3c
       0.04221086 0.026965057 -0.03381867 0.015946604
0003c0 24 1a 56 3d 3b d9 f8 3d 2f 95 1b bc d6 2a c5 bd
       0.052271023 0.121508084 -0.009496017 -0.09627311
0003d0 1b bb 1d bd 5d f5 e2 bc 90 6e 1b bd 3f e4 57 3d
       -0.038508516 -0.027704889 -0.037947237 0.052707907
0003e0 0f 64 da bd b5 da 24 bd f6 05 c6 3c 24 90 09 bd
       -0.10663616 -0.040247638 0.024172764 -0.03358473
0003f0 62 ea 8c 3c 02 e6 4f bd 13 50 b3 3c 56 54 47 3d
       0.017201606 -0.050756462 0.021888768 0.048664413

weight_hh_l0 f4 [100, 100]
000000 00 d3 1c 3c 00 82 52 bd a7 d6 11 bc b0 61 50 3d
       0.009571791 -0.05139351 -0.008901275 0.050874412
000010 2b 62 bb 3d 9a 69 30 3c ed c2 7e 3d 4a 37 b6 bd
       0.091495834 0.010767365 0.062197614 -0.08897264
000020 cd 50 b0 3a d5 ec 81 bd d3 74 19 3d 40 e1 c9 3c
       0.0013451815 -0.06344 0.037464928 0.02464354
000030 8d 23 64 bc da 97 12 bd 40 13 81 3d 28 87 8a 3d
       -0.013924492 -0.03578935 0.063025 0.0676406
000040 eb 21 8c 3d bd 7e 35 bd e0 ce 46 bd 12 43 bc 3d
       0.06842407 -0.04431032 -0.048537135 0.0919248
000050 02 1c 94 3d 93 45 87 bc a3 f1 c6 3d ed f3 a9 3d
       0.072319046 -0.016512668 0.09714057 0.08298478
000060 4f f9 87 3d c7 04 9c 3c 5d 96 7c bd e7 4a e2 bb
       0.06639349 0.019045247 -0.061666835 -0.0069059017
000070 27 0a ca 3d fd 3e a2 bd af 62 ae bd 10 84 93 3d
       0.09865218 -0.0792217 -0.08514916 0.07202923
000080 fa 94 97 3d 92 f4 8b bd 00 21 bf 3b 95 e7 c7 bd
       0.07401462 -0.068337575 0.0058327913 -0.09760968
000090 c3 73 c6 bd 4a ff 17 bd d3 a9 3f bd 75 e5 a2 bd
       -0.096900485 -0.037108697 -0.046792816 -0.07953922
0000a0 fa 43 c4 bd 57 5d 8f 3d 07 73 92 bd 83 ca 75 bd
       -0.09583278 0.07000225 -0.07150846 -0.060007583
0000b0 6d 33 f7 bc f3 05 23 3c 33 b3 57 b9 d2 e1 96 3d
       -0.030175889 0.009950149 -0.00020570755 0.073672906
0000c0 00 2a 83 3b 00 82 1c 3c 17 1b 55 bd f7 0a 98 3d
       0.0040028095 0.009552479 -0.052027788 0.074239664
0000d0 60 1d 64 bd 30 ce a0 bd 0a 6c 18 3d 18 61 a8 bd
       -0.055692077 -0.07851827 0.03721241 -0.08221644
0000e0 b0 5d 53 bd 33 09 a3 ba 35 04 cb bd 9a ff e2 3c
       -0.05160302 -0.0012438655 -0.09912912 0.027709771
0000f0 72 54 a1 bd 27 0a a9 3c d5 e0 b0 3d 57 04 a1 3d
       -0.07877435 0.020634724 0.08636633 0.07862156
000100 83 46 80 3d 97 7f 15 3d ea 13 40 3d 53 e9 f6 bc
       0.06263449 0.036498632 0.04689399 -0.030140555
000110 cd db 87 bd 73 c8 26 3c a0 00 7f bd cd 22 22 3c
       -0.066337205 0.010179627 -0.062256455 0.009895992
000120 9a 66 ce 3c f3 a0 8b bc 00 fc 44 3a b3 d5 18 bc
       0.025195409 -0.01704452 0.00075143576 -0.009328294
000130 b2 a5 97 bd 8d ee 23 bc 5a 90 9d 3d 2d 40 49 3d
       -0.07404651 -0.010005605 0.076935485 0.04913347
000140 dd 60 c4 3d 88 aa 86 bd 3d 14 b6 3d c7 85 81 bc
       0.09588788 -0.06575495 0.08890579 -0.01581086
000150 af e1 b9 bd e0 e2 10 bd e7 48 b6 3d b7 44 3e 3d
       -0.09076249 -0.035372615 0.08900624 0.04645225
000160 f8 92 cc bd 9a 68 8d 3d e7 3a dc 3c 87 71 9f bc
       -0.099889696 0.06904717 0.026883556 -0.019463314
000170 93 7a 56 3d 17 f9 82 3d ed bf 9d bc 7a 02 b0 bc
       0.05236299 0.06395166 -0.019256556 -0.021485556
000180 33 f0 15 bd ba f6 21 bd 13 a3 7f bd 02 8a 8f bd
       -0.036606025 -0.039541937 -0.06241138 -0.07008745
000190 af 56 95 bd e7 e8 ae bb ad da de 3c 9a 47 38 bb
       -0.07291924 -0.0053378227 0.027203882 -0.002811885
0001a0 b3 d6 59 3c d3 22 85 3d 80 4e f0 bb e3 de 71 bd
       0.013295817 0.06500783 -0.0073335767 -0.059050452
0001b0 1a 17 91 3c 00 60 cc 38 4d 0f c6 3c 40 da 47 3c
       0.017711211 9.7453594e-05 0.024177218 0.012198031
0001c0 e2 c3 c9 bd 85 7c 93 3d 3a e9 5a 3d 9d 1e 2a bd
       -0.09851815 0.072014846 0.05344508 -0.0415331
0001d0 e7 98 5e 3d bf 10 b4 bd e2 75 c0 bd 4d 7a 63 3c
       0.054345038 -0.087922566 -0.09397484 0.013884139
0001e0 0a 32 6e bd a8 2f bf bd 83 cb a8 bd 0a b7 72 bd
       -0.05815319 -0.093352616 -0.08241942 -0.05925659
0001f0 8a 62 04 bd 53 29 df bc 83 e0 37 3d cd 17 9f 3d
       -0.032320537 -0.027241385 0.044891845 0.077682115
000200 f5 ee 88 bd 97 64 b4 bd 48 df c1 bd 2a 5d 76 3d
       -0.066862024 -0.088082485 -0.09466416 0.060147442
000210 8d 26 8a bd 33 2b 80 bd 93 08 5b 3d 1b 21 ac bd
       -0.06745634 -0.062582396 0.053474974 -0.08404752
000220 4a 26 cb bd c8 38 b8 bd 0d 5d 99 3d da 1c b1 bd
       -0.099194124 -0.08995205 0.07488451 -0.08648081
000230 b0 3d 6b bd 93 cd ba bc 1a 77 88 bd 00 1c 90 bd
       -0.057431877 -0.022803104 -0.06663342 -0.070365906
000240 cd b5 42 bd 53 77 e5 bc fa 3e 86 bd fa d3 88 3d
       -0.04753666 -0.028011 -0.065549806 0.06681056
000250 9a 6e 5c 3b 40 75 69 3d d5 2b 99 3d 83 64 cb bd
       0.003363526 0.056996584 0.074790634 -0.099312805
000260 da 1e 68 bd d3 39 90 bd 2d 95 89 3c 7a 07 bf 3d
       -0.056670047 -0.07042279 0.016794765 0.09327598
000270 ff 37 c4 bd f8 68 b5 bd 8d f8 bc 3c e3 ed 06 3d
       -0.09580993 -0.08857912 0.023067737 0.03294171
000280 da 7c c6 3d 58 6d 85 bd 1a d2 a2 3d dd 44 1e 3d
       0.09691782 -0.06514996 0.0795023 0.038639892
000290 a3 c7 9e 3d 42 03 a7 3d 2d 70 d9 bc 30 6f ab bd
       0.077529214 0.08154918 -0.026542747 -0.08370817
0002a0 33 b9 d5 bc 1a a4 db bc 40 6e dc bc 3a f0 8c 3c
       -0.026089286 -0.026811648 -0.02690804 0.017204393
0002b0 4d 44 1d 3c aa bb 20 bd e8 1b a7 bd 33 56 2a bd
       0.009598804 -0.03924147 -0.081596196 -0.041586112
0002c0 b5 05 c8 3d ca 87 17 3d dd 4b 7d bd 63 1e 77 bd
       0.097667135 0.036994733 -0.061839927 -0.060331713
0002d0 22 48 cb 3d 93 6e 7e bd b7 be 18 bd 9a ca 5c 3b
       0.099258676 -0.06211717 -0.037291255 0.0033690096
0002e0 00 95 f5 3c 73 ca 6a 3d b0 33 2d bd 8b 09 ba 3d
       0.029978275 0.057321977 -0.04228562 0.090838514
0002f0 27 7c d8 3c e7 87 71 bd 73 b4 38 3d c7 6f 81 bd
       0.026426388 -0.058967497 0.045093965 -0.06320148
000300 20 8f 2c bd ea 98 21 bd 60 8a b5 3c 40 2a c2 3d
       -0.042128682 -0.03945247 0.022160709 0.09480715
000310 60 75 84 3d 00 3c 63 3b 67 b5 61 3d ed 2f 9f 3c
       0.064677 0.0034673214 0.05510464 0.019432032
000320 4d 9e b4 bd ed ad 98 3d d5 92 a1 bd b3 af a7 bd
       -0.08819256 0.07455049 -0.07889334 -0.08187809
000330 7d 24 03 bd c2 d7 c9 bd 0d 04 99 bc 5a 54 2f 3c
       -0.03201722 -0.09855606 -0.01867869 0.010701263
000340 67 26 be b9 9a 82 ce bc 9d ba 2b 3d 5d ce b7 bd
       -0.00036268236 -0.02520876 0.041926015 -0.089749075
000350 53 00 cb bc 20 0e be 3d 5f 79 96 3d ad 26 ff 3c
       -0.024780428 0.09280038 0.073473684 0.031146372
000360 17 6b 68 bd 2a 61 a4 bd 50 8c c0 3d 3d 95 97 3d
       -0.056742754 -0.08026345 0.094017625 0.07401512
000370 fa 73 a4 3d 2d 24 00 3d d0 e0 58 bd c3 a8 51 3d
       0.08029933 0.0312845 -0.052948773 0.051186334
000380 cd 52 c8 bc 37 78 61 bd ba 9e 26 3d 48 82 bb 3d
       -0.024453545 -0.055046286 0.040678717 0.091557086
000390 9a cf 9f bd 4f 6e b4 3d 13 8c f4 bc 40 5e ba bd
       -0.07803269 0.08810102 -0.029851949 -0.09100008
0003a0 73 f4 06 3c b3 47 dc 3c 9a c3 de bc ba 15 c5 3c
       0.008236992 0.026889658 -0.02719288 0.024058212
0003b0 ca ec 0e 3d a3 bb a8 bd 00 a7 fb bc 67 f3 aa bc
       0.03489379 -0.08238914 -0.03071928 -0.020868016
0003c0 90 fb 65 3d 1d 70 5c bd 8d b9 a7 3d 0a 73 bd 3d
       0.05614811 -0.053817857 0.08189688 0.092504576
0003d0 90 41 ab bd b7 7e 66 3d 0d e7 1b 3c 80 1a 4c 3d
       -0.083621144 0.05627319 0.009515536 0.04982996
0003e0 5a 0a 8c bc 5b e2 aa bd 9a 15 e5 ba 68 41 9b 3d
       -0.01709478 -0.08343955 -0.0017477751 0.075808346
0003f0 ed 6f c9 3c c0 1f 96 3d 90 1f 88 3d ba bb 90 bc
       0.024589503 0.073302746 0.06646645 -0.01766764

bias_ih_l0 f4 [100]
000000 20 36 bd 3c 40 ff 1d bd 70 a5 1f 3e fd c1 b3 bb
       0.023097098 -0.038573503 0.15590453 -0.0054857717
000010 ac 58 e2 3d 1c bd b2 3d 06 01 ee 3d a3 6a 11 3e
       0.11052069 0.08727476 0.11621289 0.14200835
000020 13 06 25 be 3d aa 10 3c 58 5a 88 3d 76 9b ad 3d
       -0.16115598 0.0088296505 0.06657857 0.084769174
000030 25 d1 f8 3c f6 3f 4d be 7c 5c 36 be b8 01 d7 3d
       0.030373165 -0.2004393 -0.17808717 0.10498375
000040 ba dd 9b bd bd f5 b8 bd d0 fd b9 bd 3e 92 60 bd
       -0.0761065 -0.09031246 -0.09081614 -0.054826967
000050 b0 8b 8b 3d d3 aa 73 3d 99 40 15 be 49 9c 32 3e
       0.06813753 0.059489083 -0.14575423 0.1744243
000060 64 e9 32 3e 2e 0f 03 be d4 c8 de bd 95 14 32 3e
       0.17471844 -0.1279876 -0.10878149 0.17390664
000070 51 8f 1b 3d d9 b7 d6 3c 5e 5f 29 bc bf c6 53 3c
       0.037978474 0.026210712 -0.010337679 0.012925803
000080 c9 09 eb bd 2d 56 09 3d 2d fe fb 3d a7 c4 01 3d
       -0.11476476 0.03352945 0.123043396 0.031681683
000090 3d 0b 44 3d 78 29 55 bd 7a df 65 bd 1b bb 5b bd
       0.04786228 -0.0520415 -0.056121327 -0.053645235
0000a0 80 2d dd 3c b8 db 91 bd f5 a7 6f 3d cc 32 95 3d
       0.026999235 -0.07121986 0.058509786 0.07285079
0000b0 47 22 a8 3c d0 2b 06 be 64 8d 48 bd 54 dc 57 3c
       0.020524157 -0.1310265 -0.048962966 0.013175089
0000c0 08 a4 5c be 6a b2 a5 3d c5 e2 c9 bd 3c e8 ac bd
       -0.21546948 0.080906704 -0.09857706 -0.08442733
0000d0 cc 47 3a 3e bd c9 35 3e d0 69 9c 3d 51 73 8c bd
       0.18191451 0.17752738 0.0763737 -0.06857932
0000e0 7d 29 a3 39 39 4f b2 3d 76 d4 ae 3d 49 fa cb bc
       0.00031120694 0.08706517 0.085366175 -0.024899619
0000f0 c8 77 fd bd 09 1b 24 3d 88 d0 65 be f9 15 01 be
       -0.12376362 0.040064845 -0.2244283 -0.12606038
000100 69 0c bf 3c 25 a2 97 3d 2e 66 b4 bd 71 8d 09 3e
       0.023321347 0.074039735 -0.08808552 0.13432862
000110 13 cf 47 3e 28 10 9b bc 7c 6e 27 3e 93 cd 46 3e
       0.19512586 -0.018928602 0.1635074 0.19414358
000120 ae 50 11 3e 26 2e eb ba ca 60 49 3e 35 67 1b 3e
       0.14190933 -0.001794283 0.19665828 0.15176089
000130 44 d1 17 be b4 0a 9c 3c a7 3f 04 bd 4f 1a 40 3e
       -0.14825922 0.019048072 -0.032287266 0.18760036
000140 1f ae e6 bd 2e 2d 3e bc d4 a9 2b 3e 6f bb df bd
       -0.1126368 -0.011607451 0.16764003 -0.10924422
000150 c6 52 f0 bd 86 89 f1 3d 6f 7c 14 3e a8 b2 85 3d
       -0.11734538 0.11793809 0.14500593 0.065282166
000160 cc 67 6b bd cc a0 89 3d 63 85 e9 bc c6 67 a1 3d
       -0.057472035 0.06720123 -0.028505987 0.07881121
000170 1e 7b af 3d 1d ab 10 be 07 dd 75 bc 52 2b 13 3b
       0.085684046 -0.14127775 -0.01500631 0.002245624
000180 6e 3c 21 3e 58 40 1c 3d 37 f5 7a bd ac d4 aa bd
       0.15745708 0.0381473 -0.06126901 -0.08341345

bias_hh_l0 f4 [100]
000000 f3 7b 00 be 7a 8f 25 bd 0e 6e 49 3e 74 ef 30 be
       -0.12547283 -0.040420033 0.19670889 -0.17278844
000010 42 68 89 3c a0 c1 d7 3d 99 36 4a bd c3 22 01 3e
       0.016773347 0.10534978 -0.049368475 0.12610917
000020 47 af 76 be 9b 3b 10 be d1 ed 28 3c 9a af 00 3e
       -0.240903 -0.14085238 0.010310606 0.12566987
000030 ee 22 b4 bc b0 22 87 be ac 1f 65 bd d6 ea 16 3e
       -0.021989312 -0.26393652 -0.055938408 0.1473802
000040 e9 0b 01 be 39 14 38 bc d4 96 91 3d a1 c9 0e be
       -0.126022 -0.01123529 0.07108846 -0.13944103
000050 3f 72 ab 3d 92 3f 3c 3d 04 dd 64 3b e9 da a0 3d
       0.083714 0.045959063 0.0034921775 0.07854254
000060 ce 4c d9 3d ab f9 a1 bd 82 56 ab bd 86 4b 50 3b
       0.106103525 -0.079089485 -0.083661094 0.0031783297
000070 38 3c 39 3c d6 27 c7 3d 3d 3d 3c bd b5 34 da 3c
       0.011305861 0.09724395 -0.04595684 0.02663646
000080 bb b5 34 be ad 04 cc 3d 1e 13 53 3e 34 14 73 3d
       -0.1764745 0.09961829 0.20612761 0.05934544
000090 83 2e b0 3d 3d 26 c2 bd 75 86 57 bd 22 ff 4c 3c
       0.086026214 -0.094799496 -0.052618463 0.012512
0000a0 b3 b3 4f bd e1 7f 0b bc e9 ce d9 3d 38 e8 84 3d
       -0.050708484 -0.008514375 0.10635168 0.06489605
0000b0 78 87 b1 bd 54 a3 22 be c7 de c5 3d 30 51 58 bd
       -0.08668417 -0.15882617 0.09661632 -0.0528118
0000c0 34 64 2d be 5d 7a 84 bc ef 37 89 3b 44 2b a8 bd
       -0.16932756 -0.016171629 0.004187576 -0.08211377
0000d0 f5 2f 1a 3e 73 9c 06 3e 01 10 13 3e 37 a5 bf bd
       0.15057357 0.13145618 0.14361574 -0.09357684
0000e0 74 0c 07 bd 58 22 3d 3c 30 2a 57 3d 7b 7b 0c 3d
       -0.03297086 0.011543833 0.052530468 0.034297448
0000f0 99 dc d8 3c da 29 f8 3d a0 e1 22 be 11 99 f8 bd
       0.026472377 0.121173576 -0.15906382 -0.1213857
000100 06 7e 88 3d e5 29 74 3d 08 55 ef bd ce b5 ec 3c
       0.06664662 0.059610266 -0.1168614 0.028895285
000110 ee 38 05 3e 92 b1 a7 3c d6 ee 24 3e cb b4 70 3e
       0.13009998 0.020470414 0.16106734 0.23506467
000120 20 d2 86 3b f6 ee b2 3d 52 f8 5a 3e f1 15 f2 3d
       0.0041144043 0.087369844 0.21383789 0.11820591
000130 26 8e e3 bd 14 4d 4d 3d 59 4c d7 3d 8a 34 e4 3d
       -0.11111097 0.050122336 0.10512609 0.111428335
000140 92 b9 92 bd fa 74 fe bd 48 a4 16 3e e3 65 b3 bd
       -0.07164301 -0.12424655 0.14711106 -0.08759668
000150 e2 21 e2 bd 5e 4c 72 3d f2 86 d4 3d 24 13 3d bd
       -0.11041619 0.05915486 0.10377301 -0.046160832
000160 90 7b 2c 3c 8f d9 23 3e c0 57 ee bd d8 a2 54 3e
       0.0105275065 0.16000961 -0.11637831 0.20765245
000170 3a ab 22 3e 19 7b a9 bd 66 dd 22 3c db d9 3e 3e
       0.1588563 -0.08275432 0.009940481 0.18637793
000180 a2 d9 0a 3e 34 d6 22 bd 3c fd b3 3d fe 83 17 be
       0.13559583 -0.03975506 0.08788535 -0.14796445

weight f4 [60, 100]
000000 59 06 25 3c 5e ee 4b 3c cb 51 e0 3d a5 a3 af bc
       0.010072314 0.012446968 0.10953101 -0.021440336
000010 10 4f e4 3c 4d 9f 8a bd 84 d2 7a bd a2 b4 89 3c
       0.027869731 -0.067686655 -0.06123592 0.016809765
000020 3e 32 61 3c 55 4f 39 bd a5 03 61 3d 81 0a 9a bd
       0.013744889 -0.045241673 0.054935116 -0.07521535
000030 28 e9 89 bd 5d 6f 02 be 6c 23 86 bd ea 4a 1a bd
       -0.06733924 -0.12737794 -0.06549725 -0.0376691
000040 d9 4e 89 bd ab ea 89 3d ff d1 3d bc 68 90 c1 bd
       -0.06704492 0.067342125 -0.0115857115 -0.094513714
000050 f9 2e bd 3d b9 e5 07 be 04 1a fa bd 7f 37 76 bd
       0.09237475 -0.13271226 -0.12211993 -0.06011152
000060 5a 7b 09 3e 53 ef 4c 3d 6d 2e 8e 3d 7d 21 97 3c
       0.13425961 0.050032925 0.06942449 0.018448586
000070 c1 6d 00 3e c7 31 e8 3c 82 da 2b bd 37 40 b1 3d
       0.12541868 0.028344048 -0.041956432 0.08654826
000080 fd f4 d4 bd e0 ca b6 3c e8 cf 85 3d 4a 14 ab 3d
       -0.1039829 0.022313535 0.065337956 0.08353479
000090 ad b9 87 bd cb f9 24 bd 3b 11 01 bd 41 17 b7 bd
       -0.06627212 -0.040277284 -0.031510573 -0.08939982
0000a0 d5 cd fb 3d 23 08 9d 3d 3d 08 ec 3d 5a 87 a2 bd
       0.12295119 0.076675676 0.11525009 -0.079359725
0000b0 b4 02 07 be 32 e0 12 bd f6 b6 1e 3c 99 d8 8d bc
       -0.13184625 -0.03585834 0.009687176 -0.017315196
0000c0 f6 de e0 3c 53 e6 c5 3c 45 e0 97 3c 7d d9 a2 bd
       0.027450066 0.024157679 0.018539557 -0.07951639
0000d0 72 28 2a 3d 68 ad 9f 3d 7a bb 9e 3d 40 82 c6 3d
       0.041542478 0.077967465 0.07750602 0.09692812
0000e0 fb 5f 7a 3d c4 04 8b bd 6b 3d 8e 3c dd 93 00 bc
       0.06112669 -0.06788018 0.01736327 -0.007847753
0000f0 19 05 80 3d 08 b9 d3 bd b7 f5 15 be 52 81 15 bd
       0.06250972 -0.10338026 -0.14644514 -0.036500283
000100 74 cd 43 bd 9f 0f 5c bd 7d cf cc 3c f6 68 55 3c
       -0.047803357 -0.053725835 0.025001282 0.013025513
000110 d3 59 9f bd 1b cb 8a 3d d0 c0 35 3e 4e bc ac 3d
       -0.077808045 0.067770205 0.17749333 0.08434354
000120 a6 42 07 3d e1 b3 70 bd 7b de 1c 3e fe b5 9d 3d
       0.033022545 -0.058765296 0.15319245 0.07700728
000130 d0 ea a5 bd 0e 12 23 bd fc 78 51 3d af 6f 0e 3e
       -0.081014276 -0.03981214 0.05114077 0.13909791
000140 16 ab f1 bd ef 10 a2 bd 29 a8 9c 3d ff 25 11 bd
       -0.1180021 -0.07913386 0.076492615 -0.035436627
000150 7d 18 19 bd 3c c1 84 bd 1d 4d 73 3d e0 8d 10 bd
       -0.03737687 -0.06482169 0.059399713 -0.035291553
000160 a5 7a 1d bd 85 18 15 3d c0 9b 01 be 43 11 ea 3d
       -0.03844704 0.036400337 -0.1265707 0.11429074
000170 0f 82 f7 3d 13 17 11 bd ed 19 0b 3d f0 37 53 3d
       0.120853536 -0.035422396 0.03396027 0.051567018
000180 83 26 0e 3d 05 b6 50 3c c8 dc cf 3c ed c6 18 3c
       0.034704696 0.012738709 0.025373831 0.009324771
000190 69 a5 d5 3c ed ab 9c bd 85 95 93 3d 21 89 7f bd
       0.02607985 -0.0764998 0.07206253 -0.062386636
0001a0 ce 22 21 bc 63 f2 56 bd fe 91 90 3d 3d 1b 5a bd
       -0.009834958 -0.05247725 0.07059096 -0.053248633
0001b0 ac 78 ef 3b 42 ba 1e bd d9 53 58 bd b8 9b 9b 3d
       0.0073080864 -0.038751848 -0.05281434 0.0759806
0001c0 25 e5 bb 3d 7d 50 0b bd e0 41 41 bd df fe 92 3c
       0.09174565 -0.034012306 -0.047181964 0.017943798
0001d0 d9 c0 a2 bd 8b 36 b2 3d 43 65 c6 bb 3d f6 ff 3c
       -0.07946939 0.087018095 -0.006054552 0.031245345
0001e0 0f f8 d5 bd a9 75 16 3e fb 18 44 3d 69 6d a7 3d
       -0.10447704 0.14693321 0.047875386 0.08175165
0001f0 1a 22 09 3c f2 e9 0b bd d6 68 67 3c ff be 9c bd
       0.008369947 -0.034158655 0.014124116 -0.07653617
000200 6a ea 8d 3d 50 0e be 3d 9c c6 ad 3d ab 22 68 3d
       0.069294766 0.09280074 0.08485147 0.056673687
000210 c1 a2 86 bd e2 47 7d 3d f1 70 8c bc a8 1c 26 bc
       -0.065740116 0.06183613 -0.017143698 -0.010138668
000220 b9 bd bc 3d f1 ca ad bd 6e c7 ea bd fe 38 3a 3d
       0.09215874 -0.084859736 -0.114638194 0.04546451
000230 a2 48 59 3d ec 58 65 bd e8 36 d8 bd b4 1d 10 bc
       0.053047784 -0.055993006 -0.105573475 -0.008796144
000240 0e b4 63 3d f5 e9 2b 3d 22 10 ac bc c8 cd 0b 3d
       0.055591635 0.041971166 -0.021003786 0.034131795
000250 27 e7 9a ba 12 36 37 3d 70 ed a7 bc 6d 7d c4 3d
       -0.0011818156 0.0447293 -0.020498961 0.095942356
000260 5a 97 91 bd 47 8e 28 3d 2c 80 c0 bc 30 a8 1e bd
       -0.07108946 0.04115131 -0.023498617 -0.038734615
000270 62 85 bf bd 1a 4d a2 3c 85 55 cf 3d 60 19 7e 3c
       -0.09351613 0.019812156 0.101237334 0.01550898
000280 11 81 fd 3c c9 43 a1 3d e0 5e 7c 3d ea 13 df bd
       0.030945333 0.07874257 0.061613917 -0.1089247
000290 a9 9c c5 3d 80 a1 e2 3c f8 9c 9e 3d 3b 3b 46 3d
       0.09649021 0.0276649 0.07744783 0.04839633
0002a0 87 64 31 bd 6d 06 c5 bc b4 63 fe b8 c3 63 8d 3d
       -0.04330876 -0.024050916 -0.00012130235 0.06903794
0002b0 ad 1f 6a bd 3f 6d 74 bd 68 f3 48 3d 65 2b 17 be
       -0.057159115 -0.059674498 0.049060255 -0.14762647
0002c0 1a 32 6b bc 65 3b 86 bd 58 be 2b 3d 6d 8b d5 bc
       -0.014355207 -0.06554297 0.041929573 -0.02606746
0002d0 69 fa b4 3c 7e ce d6 bc 21 1b d7 bc 3e 45 2d 3d
       0.022092061 -0.02622151 -0.026258053 0.042302363
0002e0 f1 04 c8 bd 7f 81 a4 3d d8 63 60 bd 31 01 08 bc
       -0.097665675 0.08032512 -0.05478272 -0.008301065
0002f0 24 1d 08 bd a8 09 d5 bc b1 9f 82 3c 0d 2a 98 3d
       -0.033230916 -0.026005581 0.015945287 0.074298956
000300 cc 15 d7 bc 10 7d ac 3d 56 15 fb bd 68 9d 6d bd
       -0.02625551 0.08422291 -0.12259929 -0.058011442
000310 e8 d9 89 3d 57 56 b8 bd 4b 72 ad 3d fe 28 23 bd
       0.067310154 -0.09000843 0.08469065 -0.039834015
000320 ba 50 6e 3b 46 92 af bd 13 93 b2 bc 06 28 04 3d
       0.0036364035 -0.08572821 -0.021798646 0.03226473
000330 fa 39 16 3d d1 b5 87 bb 03 76 2e 3c 7a 86 c4 3d
       0.036676385 -0.0041415473 0.010648253 0.09595962
000340 43 d0 60 bc 54 67 99 bd e7 31 bd 3c a3 77 00 bd
       -0.013721528 -0.074904114 0.023095084 -0.031364094
000350 3b 00 91 bd bb 42 6f bd bc ce 81 bd 88 1c cc 3c
       -0.07080122 -0.05841325 -0.063382596 0.024915949
000360 a5 d5 ac bd 4d 68 8a bd ca 0d 92 3c 48 4c 2c 3d
       -0.08439187 -0.06758175 0.01782884 0.042064935
000370 15 33 cc 3c c6 22 f5 bb 7d 27 88 3c f5 9e 97 bc
       0.024926702 -0.007480952 0.016620392 -0.018508414
000380 e2 fd 80 3d d7 1d 23 bd 49 87 68 3d 32 37 97 3d
       0.06298424 -0.03982338 0.056769643 0.073835745
000390 71 37 51 3c 12 e0 a0 3d 27 97 51 bd fd dc c2 3c
       0.012769566 0.07855238 -0.05116954 0.023787016
0003a0 c3 51 b8 bd 9e aa 83 3d df e8 ca 3d 79 e6 bb bc
       -0.0899997 0.06429027 0.09907698 -0.022937046
0003b0 40 5d 07 3d 1f 19 fb bd 21 ca 69 3d b2 cb 17 be
       0.033047915 -0.12260651 0.05707753 -0.14823797
0003c0 4c 53 13 3a a6 f8 80 3d af 55 d5 bd f2 b3 3e 3d
       0.0005620017 0.06297426 -0.104167335 0.046558328
0003d0 26 4f 7d bd 3a a2 01 be af 41 a7 bd 12 f9 16 bd
       -0.06184306 -0.12659541 -0.08166825 -0.036858626
0003e0 dd 6c 39 bd 9c 06 75 bd ea bb a8 bd 93 47 d5 3d
       -0.045269836 -0.059820756 -0.08238967 0.10414042
0003f0 5f 76 04 3d 77 4e 37 bd f1 de aa 3c 11 5b 0a 3e
       0.03233945 -0.044752564 0.02085826 0.13511302

bias f4 [60]
000000 3a 74 b5 3c e4 ab 89 bc 05 92 a5 3c 28 d9 dc be
       0.022150148 -0.016805597 0.02021123 -0.43134427
000010 1d 53 cb bd ff f2 18 bc 63 dd 77 bb da d7 94 bb
       -0.09927962 -0.0093352785 -0.0037821166 -0.004542333
000020 98 7d bc bb 8d ba 88 be 34 c8 04 bd 71 b9 3d 3c
       -0.0057522766 -0.26704827 -0.03241749 0.011579857
000030 7e 56 af be 9a 5c 53 bd 42 98 a7 be e3 54 81 be
       -0.34245676 -0.051601984 -0.3273335 -0.25260076
000040 86 cb ec bd ef fd b7 bd f3 9e 80 be 5f ee b0 be
       -0.115622565 -0.08983981 -0.2512127 -0.34556863
000050 a5 e1 c7 be 9d 2d 83 be c9 0b 94 3d d4 6a 2f bd
       -0.3903934 -0.25620738 0.0722881 -0.04282649
000060 30 92 46 bd 18 51 84 be 89 2a a9 bd e6 70 18 be
       -0.04847926 -0.2584312 -0.08260066 -0.14886817
000070 72 00 12 bd 18 34 e1 3c 10 4d 0c be 63 ac 50 3d
       -0.035644956 0.02749066 -0.13701272 0.05094565
000080 0e b1 3a 3b 2f e6 2b bd b6 f9 1f bc 22 fa 08 bd
       0.002848688 -0.041967567 -0.009764126 -0.03344167
000090 6c 65 c5 be fe ba 85 be 36 f3 b8 be c4 0c 19 be
       -0.3855394 -0.26119226 -0.36123055 -0.14946276
0000a0 3a fe 96 be a7 07 a6 be 27 13 90 be 9b b9 8c be
       -0.29490834 -0.32427713 -0.28139612 -0.27485356
0000b0 3e 03 b4 be 61 1b ac be 9a c9 c5 be 40 7c bb be
       -0.35158724 -0.33614638 -0.38630372 -0.36618233
0000c0 04 7d a1 be d7 b0 d5 be d5 ec 97 be 1e cb c7 be
       -0.31540692 -0.4173648 -0.29672876 -0.39022154
0000d0 cf 8a ae be 96 3d 89 be d2 cb c2 be 4a 2d c0 be
       -0.34090278 -0.268048 -0.38046128 -0.37534553
0000e0 a3 27 bd be 18 ae ae be 3d bf 98 be 4f 9e 7e be
       -0.36944303 -0.34117198 -0.29833403 -0.24865077
