mdp.pth (torch, 99183 bytes, 7 tensors)

weight f4 [60, 50]
000000 09 e2 10 be 7a ab b3 be 5b 80 75 3e a6 02 91 3e
       -0.14148726 -0.35091764 0.23974745 0.28322333
000010 10 9e 29 bf 41 e2 c6 be bb 92 27 3f bc ad dc bd
       -0.6625681 -0.38844493 0.6545827 -0.10775325
000020 f3 3c c2 be db 0e ab be 1f 2e 7c ba 23 03 0e 3d
       -0.37937126 -0.3340977 -0.00096199097 0.03467096
000030 38 83 a5 bf c7 38 57 3f 0c 69 05 3f 0d ea 82 3f
       -1.293067 0.8407101 0.52113414 1.0227677
000040 e8 83 0b bf cf 44 c9 be 44 b6 01 bf 0f 22 67 3f
       -0.5449815 -0.3931031 -0.5066874 0.90286344
000050 83 0a 0b 3f fa 16 dc 3e 44 6e c2 bf 7c f0 9f 3e
       0.54312915 0.4298628 -1.51899 0.31238163
000060 d7 b2 7a 3f 40 63 01 be 1e ad c6 be 57 f2 88 3e
       0.9792914 -0.12635517 -0.38803953 0.2674739
000070 02 98 ef 3e f9 1f 1e 3f 14 ae 9f 3f b2 5e 14 3f
       0.4679566 0.61767536 1.2475 0.57956994
000080 85 d1 e6 be c5 4e 9e bf 35 df 81 3f fd bb cd 3c
       -0.45081726 -1.2367789 1.0146242 0.025114054
000090 02 bf 56 bf 09 f0 a7 bd bd 71 df bf 4a c9 2b 3f
       -0.83885205 -0.0820008 -1.7456585 0.6710402
0000a0 6d 6c 60 3f 52 2a ab be 5d cc 4a 3f 81 01 a3 be
       0.87665445 -0.33430725 0.79218084 -0.31837085
0000b0 41 18 0a bf 0a ce 5b 3f 60 65 b0 3f ba 76 d6 be
       -0.5394326 0.85861266 1.3780937 -0.41887456
0000c0 10 84 77 bf 7a 93 41 bf 02 0b e7 be 86 3b a6 3f
       -0.96685886 -0.75615656 -0.45125586 1.2986915
0000d0 d0 5f 53 3f b6 3d 1f 3f ca 0a 87 bf c2 fb 1b 3f
       0.82568073 0.6220354 -1.0550168 0.60931027
0000e0 5c 38 5f be 4a 69 69 bf 70 8a fc bf 24 14 9c be
       -0.21798843 -0.91176283 -1.9729748 -0.30484116
0000f0 64 07 cc bf 4e 77 8b bf c2 fc 33 3f 84 e3 02 bf
       -1.5939755 -1.0895784 0.7030755 -0.5112841
000100 91 66 22 3d 39 bd ea 3e 88 06 85 3f a8 ba 3a 3f
       0.039648596 0.4584749 1.0392618 0.72941065
000110 03 8a 54 bf c0 74 0b 3f 0b 1a 2e 3e 33 1a a3 3f
       -0.8302309 0.5447502 0.17002122 1.274237
000120 1f ca 6c bf 7c a8 9e bf d3 47 de 3f b4 11 89 bf
       -0.9249591 -1.2395167 1.7365669 -1.0708528
000130 36 44 7a be a1 cc 06 c0 ff e1 19 3f a3 1f 81 3e
       -0.24440083 -2.1062396 0.6011047 0.2521945
000140 d3 62 d1 3e 2b cb 6d 3f 10 f4 3a 3f 0f 63 ae be
       0.4089571 0.92888135 0.7302866 -0.3405995
000150 c5 aa 04 3f 32 0a 81 3e 19 32 8d 3f 6e 26 f2 3f
       0.51823074 0.2520309 1.1030914 1.8917978
000160 8e ca 84 3e 6a 3e a2 3f bf da 84 be fa 6d 0b 3f
       0.25935787 1.2675297 -0.2594814 0.54464686
000170 03 49 c2 bf b3 d8 73 be 60 7e 63 be c9 58 9d be
       -1.5178531 -0.23813133 -0.22216177 -0.307318
000180 d2 ab 52 bd 24 2a a3 be 36 28 81 3f ac 9c fa 3e
       -0.051433392 -0.31868088 1.0090396 0.48947656
000190 9d e7 e9 3d 20 ac 0c bf 60 01 0e 3c c4 56 bb bf
       0.1142113 -0.5495014 0.00866732 -1.4635854
0001a0 dc d4 c1 3e 18 cf 67 3e ba 9a e6 3d a5 72 ab be
       0.3785771 0.22637594 0.112599805 -0.33485904
0001b0 03 a8 b1 3e 77 ba 78 3f 88 94 58 bf 28 53 6c bf
       0.34698495 0.9715952 -0.8460164 -0.92314386
0001c0 83 36 71 3f 24 95 29 3e f6 d8 41 3d 28 3b 7c 3f
       0.94223803 0.16560799 0.04732605 0.98527765
0001d0 30 c1 26 bf 42 9e 4e be a9 dc 43 c0 c8 33 7e bf
       -0.6513853 -0.20177558 -3.060343 -0.9929776
0001e0 82 e0 c8 be 8a 4c f6 be a9 be b0 3e 18 d8 4e 3f
       -0.39233786 -0.4810527 0.34520462 0.8079848
0001f0 49 79 cc 3f 88 bd ba 3e dd c5 9f bf b7 a2 f2 bd
       1.5974513 0.36472726 -1.2482258 -0.11847442
000200 17 00 98 3e 80 c5 aa 3e c4 c1 b9 3e 23 c6 37 bf
       0.2968757 0.33353806 0.36280644 -0.7178671
000210 90 3c 8b 3f fa 0c a5 be ef b4 53 3f 01 e9 49 3f
       1.0877857 -0.32236463 0.8269796 0.7887116
000220 3b 8e f9 be a2 82 f0 3e 65 0c 85 bd a9 2a c6 be
       -0.48741326 0.46974665 -0.06496505 -0.38704422
000230 fb 22 6c 3e 1f eb 61 3f 3a 73 dd bf 05 b6 ff 3e
       0.23060219 0.8824939 -1.7300789 0.49943557
000240 d4 75 30 bf a5 ae 9e bf 35 88 1d bf a1 cd 01 be
       -0.6892979 -1.2397047 -0.6153596 -0.12676097
000250 fe 0e 55 bf 73 dd b7 3d 91 9c 3e 3f 04 63 2a c0
       -0.83226 0.08977785 0.7445765 -2.6622934
000260 b1 5d 41 3f bd 0a a7 3e c6 03 9c bf 8b be e0 3f
       0.75533587 0.3262538 -1.2188652 1.7558149
000270 0c 55 71 3f 2a 35 2e 3d e2 80 a0 bf 7c fa 15 bf
       0.94270396 0.04253117 -1.2539332 -0.58585334
000280 c7 fe 59 be b4 9a b5 3f 30 9f a7 3e 82 dd 1e bf
       -0.21288596 1.4187837 0.32738638 -0.62056744
000290 b0 b7 97 3f d1 30 08 bf cd d2 96 3f 5e 5c 6d bf
       1.1852932 -0.5319949 1.1783081 -0.92719066
0002a0 47 4a ab be 61 db 61 3f c7 cb 39 bf e3 ee 62 bf
       -0.33455107 0.8822537 -0.72576565 -0.8864576
0002b0 21 c5 79 be 6e 79 12 be b3 a8 c8 bf 9b 4a d2 3f
       -0.24391605 -0.14304134 -1.5676483 1.6429018
0002c0 87 b2 23 bf b4 20 73 3c 6b b7 35 bf 52 53 40 bf
       -0.63944286 0.01483934 -0.70983 -0.75127137
0002d0 ae f4 18 3f cf 2e 4b 3f 4a a1 3e bd 80 f4 3d bf
       0.5974835 0.793683 -0.046540536 -0.742012
0002e0 ce 01 bd be 58 e2 02 c0 aa 18 58 3b 2d 4a f0 be
       -0.3691544 -2.045065 0.0032973685 -0.46931592
0002f0 e4 47 54 bf 52 7c d2 3e cb a0 7d 3c a9 94 1f bf
       -0.82922196 0.41110474 0.015480231 -0.6233621
000300 da 3d 80 bf 8d e7 31 bf 0d 9a 23 c0 a7 47 01 bf
       -1.0018876 -0.69493943 -2.5562775 -0.5049996
000310 dc 35 b1 bf cc 2e bc 3d c4 b1 d7 3e 7a 3a dc be
       -1.3844562 0.09188613 0.42127812 -0.43013364
000320 cd 85 9d 3f 95 5a f4 be b1 83 c3 3f 93 04 04 bf
       1.2306458 -0.4772536 1.5274564 -0.5156948
000330 27 13 a2 bf 57 d9 38 3f 7b 3e 19 3e d8 57 58 3f
       -1.2662095 0.72206634 0.1496524 0.8450904
000340 60 dd dc be 6d 83 c3 3f 7d 83 66 be 36 65 b4 bf
       -0.43137646 1.5274483 -0.22511096 -1.4093387
000350 54 75 d4 3d 75 90 d1 bf ee 79 85 be ab 3f 0a bf
       0.10373941 -1.637221 -0.26069587 -0.540034
000360 6e e4 88 bf 78 2d 54 3f 25 f7 18 bf 1a 4c a3 bf
       -1.0694711 0.8288188 -0.5975211 -1.2757599
000370 e9 fa d5 be 41 fe 80 c0 e0 9f 2f 3f a0 96 fc be
       -0.41792992 -4.031037 0.68603325 -0.49333668
000380 d1 6a 99 3f 66 0f ae 3f 59 cb ff be a8 a8 20 bf
       1.1985723 1.3598449 -0.4995983 -0.6275735
000390 a6 90 22 40 8e bf 03 bf 1b e5 c0 3f 44 03 01 3e
       2.5400786 -0.51464164 1.5069917 0.12598902
0003a0 7f 03 f4 3e a6 26 74 bf 08 50 82 bf 65 2e 08 3f
       0.47658917 -0.9537147 -1.0180674 0.5319579
0003b0 cb e4 ff be 58 2c 7a 3f 65 a0 bf 3f 4e a8 32 3f
       -0.49979243 0.97723913 1.4970824 0.6978806
0003c0 be dc 15 c0 2d c3 8d be ba a3 1a bf 78 07 d5 bf
       -2.341598 -0.2768797 -0.60406077 -1.6642904
0003d0 84 ca 33 3d aa 3a bf 3d c9 a3 68 3f 49 ab 33 bf
       0.043894306 0.09337361 0.90874916 -0.70183235
0003e0 f6 f0 83 be 8f 30 8f bf a2 b2 c2 be 98 2d c1 bf
       -0.25769776 -1.1186694 -0.3802691 -1.5092039
0003f0 e1 3d 70 be b7 fc 61 3f ef 8f fd be 63 99 95 bc
       -0.23461105 0.8827624 -0.49523875 -0.018261617

weight_ih_l0 f4 [100, 50]
000000 b6 15 16 be 7d ae d6 3d 06 22 07 be 3e ed 51 bd
       -0.1465672 0.104825 -0.13196573 -0.051251642
000010 60 6c b1 bd 0c 0f b6 bc 12 de 04 3d c0 bf 20 3e
       -0.08663249 -0.022223972 0.032438345 0.15698147
000020 82 b5 3d bd ec b2 c3 bd ea 48 7a 3c 90 17 27 bd
       -0.046315677 -0.09555611 0.015276173 -0.040793955
000030 ad 0d f3 3d 58 97 3b 39 5f 44 14 3d 05 a3 e1 bd
       0.11867843 0.0001789009 0.036198016 -0.11017422
000040 41 25 20 bd a5 ae 70 bc c3 6f 5d be d7 e2 e7 bc
       -0.039098028 -0.014690076 -0.21624665 -0.028306408
000050 4a 8b 1c 3e 2c 7a 46 3d b4 43 71 3c 25 40 e7 3d
       0.1528751 0.048456356 0.014725614 0.112915315
000060 a4 90 d0 3d 13 4f c7 3c b5 59 da bb 21 a7 0e 3d
       0.10183838 0.024329698 -0.006663526 0.034827355
000070 3a 62 4a 3e b3 92 1d bd d7 ed 20 be 67 0c c7 bd
       0.19764033 -0.03846998 -0.15715729 -0.097191624
000080 9a 95 07 3d 19 a2 b7 bd 25 bd 04 3e 71 3d 05 3d
       0.033101656 -0.089664645 0.12962778 0.0325293
000090 3d b3 5d 3d 98 46 d2 3b d7 07 16 3c 63 87 c4 bd
       0.054126013 0.006417107 0.009157143 -0.095961355
0000a0 5c 4d f0 bd 46 3c ce 3c aa 4a be bd 3f c6 78 bd
       -0.11733505 0.025175225 -0.09291585 -0.060735937
0000b0 09 2c 26 3d 72 5b bc 3c 61 72 3d 3d 20 ac 43 bc
       0.04056934 0.022992823 0.04625166 -0.011942893
0000c0 f6 16 1b 3d fb da 27 3e 89 b4 a3 3c c6 7c 67 3d
       0.037863694 0.16392128 0.019983547 0.056515478
0000d0 aa 05 db 3d a5 4e 67 3d bc 20 b9 3d 1e 7b e5 3c
       0.1069444 0.056471486 0.09039447 0.028012808
0000e0 3a 97 c1 bc 0a 45 ce bc b8 0a e6 bd db b8 0c 3d
       -0.02363168 -0.025179405 -0.11232513 0.03435598
0000f0 2d 22 bf 3c 8b 52 ee 3d e6 47 34 bd 4f 5d 07 be
       0.023331726 0.116368376 -0.04401388 -0.13219188
000100 c1 00 33 bb 86 dc 4b 3d 38 15 c9 3c e8 6a 52 bc
       -0.0027313682 0.049770854 0.02454625 -0.012842871
000110 69 33 9b 3c 1a 57 0e 3d 50 cd ff 3c b7 e8 8f bd
       0.018945413 0.034751035 0.03122583 -0.07026809
000120 0d 5d c1 3d bb 5d 8f 3c 90 b8 f6 3c 27 62 61 bd
       0.09441576 0.017500749 0.030117303 -0.055025246
000130 bf bc 5e 3d 2e be a3 3d ad ed 78 be 61 13 b2 3d
       0.05437922 0.07995258 -0.24309416 0.086951025
000140 b6 d2 84 3d 3c 4f 8b ba c3 37 46 3c ee 28 fb 3d
       0.064855024 -0.0010628472 0.012098256 0.12263666
000150 5a c2 9a 3d 5e 49 af bc 67 f3 99 bc b4 b0 f3 3c
       0.07556601 -0.021397289 -0.018792821 0.029747345
000160 a9 22 97 3a b5 ec 83 3c 7f d9 4e 3d 52 f9 bd bd
       0.0011530715 0.016104082 0.05050039 -0.0927607
000170 7a 4a b5 3d a0 b0 0d 3e 83 e3 1a bc f2 b3 b9 3d
       0.08852096 0.13836908 -0.009453657 0.09067525
000180 0c 5d 00 3d 7d 96 0d be e3 a0 03 bb 5d 31 27 be
       0.031338736 -0.13826938 -0.002008491 -0.16327424
000190 c0 04 11 3e 34 2f a0 3d 2c 89 24 3b 17 b3 76 3d
       0.14161968 0.07821503 0.0025106175 0.060229387
0001a0 c6 24 08 be e6 d2 13 bd 7a 0f 7b 3d da d2 b2 bd
       -0.13295278 -0.0360898 0.061294056 -0.08731623
0001b0 98 94 1a bd 81 89 16 be 68 97 ce bd 20 55 a2 bc
       -0.037739366 -0.14700891 -0.10087472 -0.019815981
0001c0 6f 44 3e 3d d1 6d ee 3d 54 e1 c2 bc d8 69 ad bd
       0.046451982 0.116420396 -0.023789085 -0.08467454
0001d0 1a 90 2f bd df b9 11 3d 5e e5 a1 bb 26 08 c1 bd
       -0.042862035 0.03557765 -0.004940673 -0.09425382
0001e0 c2 5c b3 bc 4f 18 5c 3d be 6c 0c be c2 85 ad bc
       -0.021894816 0.05373412 -0.13713357 -0.021181945
0001f0 1c ac 29 3c 96 f4 ee bd c1 cc 81 3d 77 97 f8 bd
       0.0103559755 -0.11667745 0.06337882 -0.121382646
000200 46 e7 ab bd f0 0b 82 3d 40 13 a8 bd 54 4d 1a 3d
       -0.08393721 0.06349933 -0.08206797 0.037671402
000210 03 2c 24 3d 34 c7 a0 bc af bc ff bb 96 88 0c 3e
       0.040081035 -0.019626237 -0.0078044753 0.13723978
000220 bf 72 1f 3d fc 9c df bc 48 e9 6c 3c 64 b3 fd 3c
       0.03892779 -0.027296536 0.014459915 0.03096933
000230 13 ca 82 bd e7 07 ae bb c4 22 9a 3c dd af c4 3d
       -0.06386199 -0.0053110006 0.018815406 0.09603856
000240 95 bc 99 3d 10 d5 ad 3d ef a7 b8 bc b6 76 9e bd
       0.07506672 0.08487904 -0.022541014 -0.07737486
000250 c1 44 e5 3d 62 8b 9e bd 3c 5d a1 3d 62 b1 48 bd
       0.111947544 -0.07741429 0.07879111 -0.04899729
000260 ae a7 91 3d 89 42 09 be 79 52 11 bd 05 4b 73 3c
       0.071120605 -0.13404287 -0.035479043 0.014849429
000270 14 fc 11 be 7a 43 4e 3e a5 35 4c 3d be 34 24 bd
       -0.14256316 0.20142928 0.049855847 -0.04008936
000280 fe 45 b6 3c 2f a4 70 bd 5a 23 ae 3d 07 e2 19 3d
       0.022250172 -0.058750328 0.085028365 0.037569072
000290 c6 64 c3 3d d2 8e bb 3d 6b fd 81 bd 32 eb cf bd
       0.095407054 0.091581 -0.06347164 -0.10152282
0002a0 fa ac 87 bd 7c 4f b1 bd d3 94 89 bd 74 b4 cb bd
       -0.066247895 -0.086577386 -0.06717839 -0.09946528
0002b0 16 03 5c 3d 14 98 3c bd eb b1 9b bd 0b 05 03 3e
       0.05371388 -0.04604347 -0.076022945 0.12794892
0002c0 08 1d 20 be 1c 7f 57 bc 80 1a 4d 3d 10 c7 3b 3e
       -0.15636075 -0.013152864 0.0500741 0.18337655
0002d0 ee 7e 3a bd 1f 6f aa bc b6 ce 00 3e 17 44 13 bd
       -0.045531206 -0.02080494 0.12578854 -0.035953607
0002e0 93 f4 c9 bd e1 c9 b4 3c 9f fd d8 bd c7 c8 9a 3c
       -0.09861102 0.02206892 -0.105952494 0.018894566
0002f0 83 43 8f bd dd 71 0a 3d 2c ad b9 bc 81 ad 04 3d
       -0.06995299 0.033799995 -0.022665583 0.03239203
000300 e1 0d 1a 3d c1 0d ee bd f4 67 93 bd ee a2 ad bd
       0.037610892 -0.11623717 -0.07197562 -0.08478342
000310 a6 d9 18 bd 9d 8f 53 bc d8 a9 02 3c d0 af 6d bd
       -0.03731694 -0.012912658 0.007975064 -0.058028996
000320 d1 43 c8 bd 72 ab 82 bd 95 f4 90 bd b0 09 77 be
       -0.0977856 -0.06380357 -0.070779 -0.24124789
000330 e2 c0 cc 3d f0 08 08 3d d0 7f ad bd d0 cf 19 3e
       0.09997727 0.03321165 -0.08471644 0.1502068
000340 9e f2 23 bd 36 d6 c0 3d d2 b7 cd 3c 36 ef 5d bd
       -0.0400263 0.094158575 0.025112066 -0.054183207
000350 57 c6 8d 3d ff a9 77 3b bb 99 0c be c7 50 80 3c
       0.06922596 0.0037790535 -0.13730519 0.015663518
000360 5d 33 17 be 6f 1b 56 3d de bf e7 bc d6 5f 17 3d
       -0.14765687 0.052272256 -0.028289732 0.03695663
000370 75 35 e4 3c de b7 00 bd 8c 7d 27 bd 6d df 1f 3e
       0.027857522 -0.03142535 -0.040891215 0.15612574
000380 d1 fa 30 bd 1c b9 92 3d 8b 48 38 3d 23 57 49 bc
       -0.043207947 0.07164213 0.044991057 -0.012288841
000390 a3 e9 f3 3d 28 51 54 bc b7 fa cb 3b b1 38 c0 bd
       0.11909797 -0.012958802 0.006224956 -0.09385813
0003a0 3b 22 64 bd d9 7b 6d bc c1 bc bb bd 28 d2 8a 3d
       -0.055696707 -0.01449486 -0.09166861 0.067783654
0003b0 e8 4e 55 bd 77 57 19 be ef ad bc bd 5f ea d5 bd
       -0.052077204 -0.14974771 -0.09212863 -0.10445093
0003c0 4a 04 38 bd 71 a3 1e be b9 6e 9b 3d 40 75 8b bd
       -0.044925965 -0.15492035 0.07589478 -0.06809473
0003d0 e9 28 42 3c 2f 70 15 bc 6a 7c ab 3d 51 7b 8c 3d
       0.011850574 -0.009120985 0.083733395 0.06859458
0003e0 72 3a 58 bb a4 c4 48 3e fb 56 db bd 7a a8 6b 3d
       -0.003299382 0.19606262 -0.107099496 0.05753372
0003f0 4b 31 05 3d e5 5a 99 bd dc d9 be bd 05 e7 21 bc
       0.032517713 -0.0748804 -0.09318897 -0.0098817395

weight_hh_l0 f4 [100, 100]
000000 52 0f 85 3d 3a e0 22 bd a7 8c 7e 3c 9b e5 bf bd
       0.06497063 -0.03976462 0.015536464 -0.09369966
000010 a8 a7 8b 3d 9a af 8d bb 03 76 49 3d 92 27 88 bd
       0.06819087 -0.004323912 0.04918481 -0.066481724
000020 cd b0 f9 ba 4d f8 e7 3c b3 a4 0e 3d 93 18 07 bd
       -0.0019049883 0.028316641 0.03482504 -0.03298242
000030 27 56 15 3d f0 d7 1c bd b0 76 6e bd e5 dd 8f bd
       0.036459114 -0.03829187 -0.058218658 -0.07024745
000040 a7 84 8d 3c e7 f8 2f 3d 3a c9 6b bd 17 a9 7f 3d
       0.017275168 0.04296198 -0.05756495 0.062417116
000050 73 5e 96 3d ea 10 6d bd 07 ac a7 bc 2d f9 7f bd
       0.073422335 -0.05787746 -0.020467771 -0.062493492
000060 20 04 81 bc 6a bd 5f bd a0 ca 58 3d 4a 0c 33 bd
       -0.015749037 -0.054624 0.052927613 -0.04371289
000070 37 90 a6 bd 73 92 e7 bc 8d 60 a8 3c 9a c9 0f 39
       -0.081329755 -0.028268075 0.020553852 0.00013712645
000080 bf 4d ad bd 9d 3c 59 3d 1a e0 9f 3d e7 14 2d 3d
       -0.084620945 0.05303632 0.07806416 0.042256262
000090 c8 32 8d 3d a7 d1 6c bd 9a a6 28 bc b3 59 a9 3d
       0.068944514 -0.057817128 -0.010293627 0.08269062
0000a0 ed 38 02 bd a3 76 7c bd a7 b4 60 3d bd d8 c0 bd
       -0.03179257 -0.06163658 0.054859784 -0.094163395
0000b0 80 73 15 bd 9a 30 4a bb e3 3a ba bd f3 5b bb 3d
       -0.036487103 -0.0030851723 -0.09093263 0.09148397
0000c0 33 6c 86 bd 4d 8b 16 bd 5f f1 b3 3d 83 b6 69 bd
       -0.06563606 -0.03675394 0.08786272 -0.057058822
0000d0 2a 88 7f 3d 9a 58 e8 3b a2 2a 82 bd 07 9d ab bd
       0.062385716 0.0070906403 -0.06355788 -0.0837956
0000e0 c7 9a b7 bd c3 22 a6 3d 2a a5 cb bd 47 66 04 bd
       -0.08965068 0.08112099 -0.09943612 -0.0323241
0000f0 32 7c b6 3d e0 15 c9 3d 98 5b 8f 3d 93 b9 a6 3c
       0.08910407 0.098186255 0.06999892 0.02035216
000100 6a 4d be bd 2d bc af bc 28 49 ab 3d 67 53 3d bd
       -0.09292109 -0.021452034 0.08363563 -0.046222117
000110 92 b6 9b 3d 93 5b 04 3d c3 68 2b bd 9a 99 95 b9
       0.07603182 0.032313894 -0.041847955 -0.00028533937
000120 9a a1 6f 3a ff d2 96 bd 27 78 53 bc da 92 11 3c
       0.0009141207 -0.07364463 -0.0129070645 0.00888511
000130 e7 a7 48 bc a7 d7 35 3d 4d 7c 2b bd 3f 4a be 3d
       -0.012247062 0.044395115 -0.04186659 0.09291505
000140 0a 56 9d 3d 67 c8 13 bb 6d eb af 3c c7 fc d7 bc
       0.07682426 -0.002254987 0.021474564 -0.02636565
000150 02 a6 c9 3d 93 11 77 3d d7 29 52 3d a7 29 11 bd
       0.098461166 0.060319494 0.051309433 -0.035440113
000160 7a 45 16 bd ed e9 99 3c d3 74 9e 3c ef fd a0 3d
       -0.03668735 0.018788302 0.019342816 0.07860934
000170 ab 05 bd 3d 67 cb a0 3c 9a a7 a0 3b 9b 0e b0 3d
       0.09229597 0.01962824 0.004902792 0.08596536
000180 73 57 af 3d da b7 2f 3d 5a b6 93 3c 0a 4c 1d bd
       0.085616015 0.042899944 0.018031288 -0.038402595
000190 07 32 4d bd a5 73 9f 3d 7d 39 6b bd 8d a8 cc 3d
       -0.050096538 0.07785729 -0.057427872 0.09993086
0001a0 e7 19 c4 bb 83 2d 45 bd 43 35 9f 3d da 21 0d bc
       -0.005984533 -0.048139106 0.07773831 -0.008614028
0001b0 7f 3f af 3d fa 6d 89 3d e8 c5 8f bd cf 32 b8 3d
       0.08557033 0.067104295 -0.070201695 0.08994066
0001c0 05 af a5 3d cd 44 cb 3b 70 9c 87 bd 53 55 d0 bc
       0.08090023 0.00620327 -0.06621635 -0.02543131
0001d0 0a 75 68 3d 63 c8 6e bd f3 a9 a6 bd a7 e7 82 bc
       0.056752242 -0.058296572 -0.08137884 -0.015979601
0001e0 cd 83 b3 bc 1b de a1 bd bf 09 ad bd 40 ef 87 bd
       -0.021913433 -0.079036914 -0.084491245 -0.0663743
0001f0 d5 d1 82 3d b3 d1 b8 bc 9a 1c 80 bb 67 35 ce bb
       0.063876785 -0.02256093 -0.0039096596 -0.006292987
000200 6d 00 55 3d f7 f9 26 bd 67 37 42 bd e3 f6 4b bd
       0.05200236 -0.04076573 -0.047416117 -0.049795996
000210 48 4c ca 3d 7d 13 20 bd 93 44 55 bd 6d ae 5b bd
       0.09877831 -0.039081085 -0.05206735 -0.053633142
000220 7a d2 66 3d 4a ac 52 bd 33 aa f1 3b 07 ef 50 bd
       0.05635307 -0.05143384 0.0073750257 -0.051009204
000230 ad 51 95 3c d7 4b 8f bd f2 39 c6 3d ad 19 83 3c
       0.018227423 -0.06996887 0.09679021 0.016003454
000240 c7 89 32 bd 0d 80 08 3c a0 98 c3 bc 5a 56 ff 3c
       -0.043588426 0.008331311 -0.023876488 0.031169105
000250 1a f0 18 3d f3 71 3b 3d 67 84 08 bb 80 62 f4 3c
       0.037338354 0.045762967 -0.002083087 0.029832125
000260 e0 0b 3b bd 12 79 9d 3d 47 f8 a2 bc 77 7e 5e 3d
       -0.04566562 0.07689108 -0.019893778 0.054319825
000270 9a 7a a2 3d 13 5d bd bd b3 69 f9 3c 70 bb b7 bd
       0.07933541 -0.09246268 0.03044591 -0.08971298
000280 cd 2a 77 3b 42 2b cc bd b7 0b a5 bd 67 dd 22 3b
       0.003771472 -0.09969188 -0.08058875 0.0024851204
000290 9a 52 57 bb 53 3f bd bc 22 f8 a5 3d 63 75 7a bd
       -0.003285563 -0.023101484 0.08103968 -0.061147105
0002a0 2d 9f e7 bc 9a 4f 34 bd 40 92 12 3c 73 ce c0 3d
       -0.028274143 -0.044021226 0.0089460015 0.09414377
0002b0 00 ef a8 3c 95 cc 9a 3d 1a 25 79 3d 0d 71 85 3c
       0.020621777 0.07558552 0.0608264 0.016289258
0002c0 fd 3f 49 bd 47 d9 8b bc 53 2a d6 3c 27 7b b8 3c
       -0.04913329 -0.01707138 0.026143229 0.022519661
0002d0 40 f8 94 3c 8a c7 a3 bd 83 b3 3b 3d 48 ad 96 bd
       0.018184781 -0.079970434 0.045825493 -0.073572695
0002e0 6b 1d a4 3d a7 cb 3c 3c 9a b2 81 bd 83 7a 19 bd
       0.080134235 0.011523164 -0.06332894 -0.037470352
0002f0 30 58 91 3d 87 9a 47 bd 00 6f 72 3b a5 7c c6 bd
       0.070968986 -0.048731353 0.003699243 -0.09691743
000300 ea 62 b9 3d c7 d6 c1 3d 22 2d ae bd c3 34 54 3d
       0.090520695 0.09464794 -0.08504702 0.05180813
000310 6d e3 e8 bc 37 cc a7 3d 50 02 41 bd 33 a2 c8 3d
       -0.028428758 0.08193248 -0.047121346 0.09796562
000320 da a2 b1 3d 27 c6 48 3d 97 ea 84 bd 2d 44 91 3d
       0.086736396 0.049017098 -0.06490057 0.070930816
000330 e7 4b b4 bd 38 e2 a2 3d 0a a4 93 bd e8 43 cc bd
       -0.0880354 0.07953304 -0.07209022 -0.099738896
000340 8d 75 5e 3d 33 45 81 bb fb 5c bb bd 98 57 a9 bd
       0.054311324 -0.003945017 -0.09148594 -0.0826866
000350 07 78 a1 3c 3d f3 6a bd 1b 5e ab bd 20 39 c8 bd
       0.019710554 -0.057360876 -0.083675586 -0.09776521
000360 1d b3 3d 3d 9a 3a aa bd d3 19 e1 bc ed 63 5e bd
       0.046313394 -0.083119586 -0.027478134 -0.054294515
000370 9f ba be 3d 23 c2 59 bd 87 4c 99 3d cd 1b 42 bc
       0.09312939 -0.05316366 0.074852996 -0.011847449
000380 40 5d db bc 0d e8 ab bc 87 d0 19 bd a7 e9 d7 3c
       -0.026777864 -0.020984674 -0.037552383 0.026356531
000390 d0 bf ca bd c0 ea 96 bd 1a e6 b3 bb c0 53 1d bd
       -0.098998666 -0.07368994 -0.0054900767 -0.03840995
0003a0 80 ce 5d 3d 9a af 9f ba 27 ea af bc 60 5a 5c bd
       0.054152012 -0.0012183071 -0.021473957 -0.053797126
0003b0 c0 81 41 bd 4d 1e b7 3b 2b 23 91 3d 0d 5c e7 3c
       -0.04724288 0.005588329 0.07086786 0.028242135
0003c0 33 2f 12 3c 1b af 8b bd 43 8f 11 3d 80 d7 b1 bb
       0.008922386 -0.06820508 0.035537016 -0.005427301
0003d0 65 89 9b 3d b3 4c a3 3b 00 b3 43 bb 00 92 5c 3c
       0.07594565 0.0049835085 -0.002986133 0.0134625435
0003e0 42 42 ae 3d f2 12 b7 3d d0 ab b9 3d e7 dc 24 bc
       0.085087314 0.089391604 0.09065974 -0.010062433
0003f0 33 e3 8d bb 57 28 a9 3d a7 c4 47 bd d5 8a a0 3d
       -0.004330063 0.08259647 -0.048771527 0.0783898

bias_ih_l0 f4 [100]
000000 9d db 6f 3e e6 c6 9d be f1 af 6a bd bc bc 38 be
       0.2342362 -0.3081581 -0.057296697 -0.18040746
000010 69 e8 57 3e f8 0f 3a 3e c5 ec 43 be 85 28 97 3c
       0.21084751 0.18170154 -0.19133289 0.018451938
000020 34 63 d6 3c 8f 26 be bd d5 ad 3c 3d 0e 3c 3a 3e
       0.02617035 -0.09284698 0.046064217 0.18186972
000030 c5 4f bb 3c 4d 82 5d be 4e ee 0f bd c1 bc c1 bd
       0.022865186 -0.21631737 -0.035139374 -0.0945983
000040 2d 8f 23 3e 1e 4c 8d 3e fd 9c cd bc af aa da 3c
       0.15972586 0.27597135 -0.025099272 0.026692716
000050 ee c7 88 bd f9 e4 83 bd 41 71 6d 3d c5 17 55 3e
       -0.066787586 -0.064401574 0.057969335 0.20809849
000060 b4 62 45 3e f3 85 71 be d2 48 8b 3c db 52 5e 3e
       0.19275934 -0.23586254 0.017002497 0.21711294
000070 5f c0 40 be 57 06 30 bd b2 fe dd bd 0b 74 46 3e
       -0.18823384 -0.042974796 -0.10839595 0.19380204
000080 6b 06 2d 3e ac 3f 29 be 30 e8 8c bd 09 d1 98 bc
       0.1689698 -0.16528195 -0.06880224 -0.018654363
000090 4f 57 e1 3d 8e 72 65 bd 3b 7d 1f 3d 7b 8c 1e be
       0.11002981 -0.05601745 0.03893779 -0.15483277
0000a0 c7 48 60 be d2 aa a1 3d 02 8b ab bd 41 9d 86 3d
       -0.21902762 0.078939095 -0.08376123 0.065729626
0000b0 20 d2 a1 3d 61 2a 36 3e 8d 96 aa 3d cb bb d8 3c
       0.07901406 0.17789604 0.083294965 0.026456734
0000c0 87 9e 44 3e 4a b8 bc 3d 10 73 09 3e 9e fa 47 be
       0.19201098 0.09214838 0.13422799 -0.19529197
0000d0 02 42 77 bd 11 b9 7a 3d 88 d7 fb 3d 63 0d d1 bd
       -0.060365684 0.06121165 0.12296969 -0.102076314
0000e0 e6 95 1f 3d a0 38 11 be 99 b4 95 bc 77 a1 21 3e
       0.038961314 -0.14181757 -0.018274592 0.1578425
0000f0 42 da 41 bd cc ec 74 3e 1d f1 18 bc 2b f8 b5 bd
       -0.047327287 0.23918456 -0.00933483 -0.08885225
000100 4f cb 54 be 84 6c d9 bd 95 3a 1b bd 3a f7 a0 bc
       -0.20780681 -0.10616401 -0.037897665 -0.019649137
000110 8a 36 94 bc 12 eb 47 3e 47 f0 58 be 2b 3a 1b 3d
       -0.018092413 0.19523266 -0.21185409 0.03789727
000120 66 d5 a8 3d 7a 4d d4 bc 96 52 f9 3d 1a 27 c4 bd
       0.082438275 -0.02591585 0.12173955 -0.095777705
000130 f2 ca 26 be 1f 73 0a be e6 b8 c7 3d 96 6f 79 be
       -0.16288355 -0.13520478 0.097520635 -0.24358973
000140 85 8a ec 3d 22 b5 a4 3d b8 e5 ea 3b 59 b6 f2 3d
       0.11549858 0.08042361 0.007168498 0.11851186
000150 b7 97 24 bd d5 07 dd 3d 5f 84 1c 3d c5 70 80 3d
       -0.04018375 0.107925095 0.038212176 0.06271509
000160 4a 46 cd bd fc c7 ee bd d9 6a e5 bd da 5b e0 3c
       -0.10023172 -0.11659238 -0.1120202 0.027387548
000170 e9 6f 37 be bb 3f 42 3e 46 54 c6 bd 7b 93 3d 3e
       -0.17913784 0.18969624 -0.09684043 0.1851329
000180 3a 14 bc bd 2a 16 c2 3a e4 6e e4 3d f4 1e f7 3d
       -0.091835454 0.0014807631 0.11153963 0.12066451

bias_hh_l0 f4 [100]
000000 79 12 67 3e b2 82 8a be 74 1a b7 3d f4 e3 08 be
       0.2256564 -0.27052838 0.089405924 -0.13368207
000010 b9 73 90 3e 83 e2 9b 3d 1f 45 4d bd e0 7f 5f 3d
       0.2821329 0.07611563 -0.050114747 0.05456531
000020 b8 72 02 be aa 72 01 bd 27 9e 68 3c 5a 7f 61 3e
       -0.12739074 -0.031603493 0.014197863 0.22021237
000030 49 79 32 3d cf 0f 54 be c3 0b 0a 3e 5d 2b 04 bd
       0.043572698 -0.20709155 0.13481049 -0.032267917
000040 25 87 2d 3e a8 13 5a 3e e8 19 06 3e f3 af 60 bd
       0.16946085 0.21296561 0.1309582 -0.0548553
000050 c1 4a 00 bd b6 f5 2c 3d c5 eb dd bc 73 97 77 3e
       -0.03132129 0.042226516 -0.027089963 0.24178867
000060 18 25 12 3e 0b 38 72 be ec 0f 86 bb 35 64 45 3e
       0.14271963 -0.23654191 -0.0040912535 0.19276507
000070 0a 12 9a bd fa da eb bd 10 7e a5 3b 21 ea 61 3e
       -0.07522972 -0.11516376 0.005050428 0.2206197
000080 d1 c3 20 3e fc eb 49 be f7 f0 ff bd 80 0d df bd
       0.15699698 -0.19718927 -0.12497132 -0.10891247
000090 78 20 10 3d 4b 48 c6 bd 6c 79 3a bc 4b 9d 6b 3c
       0.035187215 -0.096817575 -0.011381488 0.014380763
0000a0 c5 67 3b be cf c5 ec 3d c8 de 07 bd a4 2b c9 bd
       -0.18301304 0.115611665 -0.033171445 -0.09822777
0000b0 b6 54 bb 3d 98 2a 9f 3d dd 7a 74 3d 6a 70 99 3d
       0.09147017 0.07771796 0.059687484 0.074921444
0000c0 ac ee be 3d 6f db 07 3d 27 77 2c 3e b0 dc 0d be
       0.09322867 0.033168253 0.16842328 -0.13853717
0000d0 0a 84 cc bd 68 76 af bd 0f 82 d4 3d 5b 5a 92 bd
       -0.09986122 -0.08567506 0.10376369 -0.0714614
0000e0 4e fe c5 3d 98 f2 09 be fb 9e a8 bd 6b 6b f2 3d
       0.096676454 -0.13471448 -0.08233448 0.118368946
0000f0 0a 24 c9 bc da a8 81 3e 37 48 b2 bc d4 a0 54 3d
       -0.024553318 0.25324136 -0.02176295 0.05191119
000100 52 1f f8 bd 82 ff 28 3d 9f b9 10 be 90 ba ee bd
       -0.12115349 0.041259296 -0.14133309 -0.11656678
000110 ef aa 61 3d 70 b4 ef 3d af d1 34 be 87 3a a6 3d
       0.055094656 0.117043376 -0.17658113 0.08116632
000120 dd 59 4e 3e bc 53 f2 bc 39 76 2b 3e 08 38 3e be
       0.20151468 -0.029580943 0.16744317 -0.18576062
000130 18 a6 dc bd a5 a4 76 be 22 bc 20 3e 36 c1 2b be
       -0.10773867 -0.24086244 0.15696767 -0.16772923
000140 f1 d6 5c 3e d6 69 0d 3e 27 fe 3b bd ce 62 30 3e
       0.21566369 0.13809904 -0.045896675 0.17225191
000150 80 36 be bd 98 37 08 3e 57 10 28 3d 5f bc 27 3c
       -0.09287739 0.13302457 0.041031208 0.010237782
000160 1b 7a 14 be a3 3f 11 be ca de 13 bd 0b 4e 1a 3e
       -0.14499705 -0.14184432 -0.03610114 0.15068834
000170 c5 3c 6b bd d8 d0 b4 3d 2f 60 0f bd a9 d5 9f 3d
       -0.057431 0.08828896 -0.035003837 0.07804424
000180 a0 40 f3 bd d4 03 9a 3d 7f f4 46 3e 72 2e ba 3c
       -0.118775606 0.075202614 0.19429205 0.022727225

weight f4 [60, 100]
000000 52 37 f9 3d c6 e7 ba bd 6a 61 f6 3c 63 32 94 3d
       0.12168755 -0.091262385 0.030075748 0.07236173
000010 9a e7 7e 3d 8d bc 2d 3d eb 5b 0f bd 20 b7 d6 bb
       0.06223259 0.042416144 -0.03499977 -0.006552592
000020 5f 6c 08 be ea f5 13 bd 32 bb 68 3d 9e 1b e6 bc
       -0.1332259 -0.036123194 0.05681915 -0.02808934
000030 c8 80 4b bb 8a 43 84 bd 99 a3 86 bc 4c b2 e3 bc
       -0.0031052101 -0.064581946 -0.016435431 -0.02779498
000040 6b 4e ec 3c ac 44 c5 3d fb 5f 9a 3d 0d da 0f bd
       0.028845986 0.09632239 0.07537838 -0.03512006
000050 f7 b8 95 3c 26 16 f3 3d a0 b8 6e bd 04 ef fd 3d
       0.018276675 0.11869459 -0.05828154 0.12399104
000060 0c ad 8f bb 19 b8 fe bd 02 1c d8 3d c7 51 9a 3d
       -0.0043846425 -0.124374576 0.10552217 0.07535129
000070 28 56 bb bc c7 24 0f be c4 82 c7 bd bb 25 95 3d
       -0.022868231 -0.13978873 -0.097417384 0.07282587
000080 60 19 79 3c 9a 08 55 be 79 54 ff bd 3b 9a 30 3c
       0.015203804 -0.20804062 -0.12467284 0.010778959
000090 2e f0 b6 3d 11 94 81 3c da 76 83 bd 8b 36 a7 ba
       0.089325294 0.015817674 -0.064191535 -0.0012757344
0000a0 13 2f cf bd cd 5a 95 3d 7f 8e 15 be 94 66 fe b8
       -0.101164006 0.072927095 -0.14605139 -0.000121307705
0000b0 be ed 0e 3e 0a 62 95 bd fa af 07 3e 82 d1 51 bc
       0.13957879 -0.0729409 0.13250723 -0.012806298
0000c0 bf d1 19 bb 1a 5f 00 3e ec c3 f9 3b b6 06 4c bd
       -0.0023470966 0.12536278 0.0076222327 -0.049811088
0000d0 01 34 76 3d d4 d4 d1 3d fa b5 a3 3d b3 40 d2 3b
       0.06010819 0.10245672 0.07993694 0.006416404
0000e0 5a cb be bc eb 82 0d bd e5 99 41 3d b0 49 8f 3d
       -0.023290325 -0.03454868 0.047265906 0.06996477
0000f0 01 f5 57 be 56 9d 1e bd 6c 4c 9f bd 05 35 8e bc
       -0.21089555 -0.038724266 -0.07778248 -0.017359266
000100 86 31 05 bc 3a 58 76 bd ad 3d ae 3d 6d f3 4d 3c
       -0.008129483 -0.060142733 0.085078575 0.012570244
000110 9c cb ac bc 11 bf f3 3d c4 2c aa bd c1 7f 9e 3d
       -0.021093182 0.119016774 -0.083093196 0.07739211
000120 92 04 c3 3d 54 e3 f3 b9 4d 22 b8 3d 8c 8c cc 3d
       0.09522356 -0.00046517944 0.08990917 0.09987745
000130 5f 6f 70 3c e0 f1 9e bc 67 cb 94 3d 67 b3 dc bd
       0.01467499 -0.019402444 0.072653584 -0.10776406
000140 e5 69 0c 3d 0c ee 4a bd b6 93 c3 3d 5f 21 ab 3d
       0.034280676 -0.049543425 0.09549658 0.083559744
000150 04 68 14 3d a5 bb 85 3d 65 06 d1 3d f2 b5 9f bc
       0.03623201 0.06529931 0.10206298 -0.019495938
000160 31 1f a6 3c 0c 07 07 bd a2 08 9c bb 0c 50 11 3d
       0.020278545 -0.032965705 -0.0047617713 0.03547673
000170 4d d4 3d 3d 20 e9 c7 3d 77 74 fc bc 59 bc b8 3d
       0.046345044 0.09761262 -0.030817254 0.090202995
000180 72 48 10 be bf 39 b5 3c 2c 74 c5 3d 9e 62 c2 bb
       -0.14090136 0.022122262 0.09641299 -0.0059321662
000190 2f 40 30 bd b4 95 86 3c 09 08 31 3d ae 8d a4 bd
       -0.04302996 0.016428806 0.043220554 -0.08034836
0001a0 fa 0b 31 3c 28 96 b3 3d 11 67 dd 3c 9b 07 53 bd
       0.010806078 0.087688744 0.027026685 -0.051520925
0001b0 2a 65 03 bd 5a a5 25 3d 81 94 b9 3d dc aa d9 3d
       -0.0320789 0.040440895 0.09061528 0.10628292
0001c0 4c 40 9d bd be a3 d2 bd a2 34 6c 3a e5 fc 75 3d
       -0.07678279 -0.102851376 0.00090105284 0.060055632
0001d0 91 60 67 3d 2e 70 2b 3d ef da 8a bd 93 f2 8d 3c
       0.056488577 0.04185503 -0.067800395 0.017327582
0001e0 23 11 78 3d 3c a3 40 3d b8 9c da bd d6 3e 50 bd
       0.060563218 0.047030672 -0.10674423 -0.050841175
0001f0 81 61 b3 3d e9 88 8e bb 59 d8 17 bd 76 f9 49 bd
       0.08758832 -0.004349817 -0.03707156 -0.04931017
000200 bf 88 85 3c 2f 13 29 bc 1d 52 3b 3d 2f e8 a2 3d
       0.016300557 -0.010319515 0.045732606 0.07954442
000210 45 fb fd 3d 52 a6 5b bd 93 de c9 3c 69 48 9e bd
       0.124014415 -0.053625412 0.024642264 -0.07728655
000220 4b ed fb 3c 95 d1 ee bc 61 b9 06 3e 28 f5 e4 bc
       0.030752799 -0.02915267 0.13156654 -0.02794893
000230 37 3d 8d bd d0 20 37 bd 8b bc 02 3e c1 ad ef 3c
       -0.068964414 -0.044709027 0.12767236 0.029257657
000240 2a 7c 80 bd c2 67 cf 3c e8 df b9 bd e9 1a a4 3d
       -0.062736824 0.02531803 -0.0907591 0.08012945
000250 81 e1 b1 3d 36 f8 9f bd 45 ae 42 bd 3a 01 bd 3b
       0.086855896 -0.07811014 -0.047529478 0.0057679685
000260 b6 96 a9 bd 8f d6 f6 bc 9b 8a 0b 3d 08 54 27 3d
       -0.08280699 -0.030131606 0.03406773 0.040851623
000270 2e 68 c5 3c f4 f1 f6 bd 47 4f 77 3d 3e 67 06 3d
       0.024097528 -0.12057868 0.06037834 0.032813303
000280 3b ae 0f 3d b2 1c 25 bd 9a fd 31 3c a0 b6 30 bd
       0.03507827 -0.04031057 0.010863686 -0.043142915
000290 37 6f 44 bc 8a 99 84 3d 39 59 c5 bd 5f e8 9d 3c
       -0.011989406 0.06474598 -0.096361585 0.019275842
0002a0 2d 50 6d 3d 53 e5 99 3d 93 71 c5 bd e0 5c 10 bd
       0.05793779 0.07514443 -0.09640803 -0.035244823
0002b0 7d 62 c4 3d de e1 0f 3e b4 2f 9a 3d 05 ad 89 3d
       0.09589098 0.14051005 0.0752863 0.06722454
0002c0 97 6b 02 bc cd 5f ff 3c f0 ab 91 bd a8 b2 eb 3d
       -0.007960222 0.031173611 -0.071128726 0.11508685
0002d0 25 11 c4 3b 9c 46 93 3d d3 65 09 be be 91 2a bc
       0.005983489 0.07191202 -0.13417749 -0.010410724
0002e0 75 5a a8 bc b4 2f 1a bc 95 4f 11 bd 54 ab e3 bc
       -0.020550946 -0.009410787 -0.035476286 -0.027791657
0002f0 6c 41 2c 3d b5 55 35 3c c3 b1 83 3d 07 57 e7 3c
       0.04205458 0.011067797 0.0643039 0.02823974
000300 18 fc 4b bd ad 7f 3d 3c 23 e8 13 be 48 56 12 bc
       -0.049800962 0.011566085 -0.14444022 -0.008931704
000310 62 07 80 3d 95 66 21 ba 69 08 b4 bd e8 16 66 bd
       0.06251408 -0.00061569485 -0.087906666 -0.05617419
000320 29 45 e7 3d 05 f8 ad bd 52 af c7 bd a5 ce 24 3d
       0.11292488 -0.084945716 -0.097502366 0.040236134
000330 17 be 1b 3e 99 86 22 bc 4d 89 b6 bd 65 0b 43 bd
       0.15209232 -0.009919786 -0.08912907 -0.04761829
000340 b2 38 e8 bc 22 aa 31 3e d2 b8 5a bc 88 b8 17 3e
       -0.028347347 0.17350057 -0.013349729 0.14816487
000350 6c 68 c7 3d 62 e6 96 3c 50 9f 97 3c 96 bc 83 bc
       0.09736714 0.018420402 0.018508583 -0.016081136
000360 21 99 95 3c 58 20 88 3d c4 14 b6 3c 3d b0 f5 3d
       0.018261494 0.06646794 0.022226699 0.119965054
000370 75 d7 a3 bc b0 54 4d bd ec 4f 09 be 30 3e 9f 3d
       -0.020000199 -0.050129592 -0.13409394 0.07775533
000380 c8 0f 99 bc ad 7e e5 bd 91 59 9a bc 2e 34 03 3e
       -0.018684283 -0.11205802 -0.018841537 0.12812874
000390 e2 c6 3a 3d fc 82 36 3d 51 92 f4 3d ec ae 14 3c
       0.045599826 0.04455851 0.1194197 0.009074908
0003a0 35 63 0c 3e cf e0 35 3d 29 71 78 3d 08 65 dc bd
       0.1370972 0.044403847 0.060654793 -0.10761458
0003b0 3d cf 5e 3d 80 5b c7 bd fc c6 dd bc e8 e7 79 3d
       0.054396857 -0.09734249 -0.027072422 0.06101218
0003c0 d2 92 8f bd e6 1e 97 3d c3 f0 62 bd ba 2e fd 3d
       -0.070104256 0.0737894 -0.05540539 0.12362428
0003d0 1d 12 5b 3d 8c 9c 96 3c 72 13 04 3c 43 62 7a 3d
       0.05348407 0.018385194 0.008061277 0.061128866
0003e0 02 44 b9 3d c8 b9 18 3d 42 62 9b 3c 33 e7 d6 bc
       0.090461746 0.03728655 0.018967751 -0.026233291
0003f0 9e b1 1a bb 88 df bd bd 27 47 5b bd ea 6f 60 bd
       -0.0023604403 -0.09271151 -0.053534653 -0.05479423

bias f4 [60]
000000 c3 f9 0a 3e 7d 41 9e bb d0 45 2a 3e 6d 44 f0 be
       0.13571839 -0.004829584 0.16628194 -0.46927205
000010 10 74 d7 bc f8 4b 47 bd d0 e1 aa bc ee 87 0d bd
       -0.02630046 -0.048656434 -0.020859629 -0.03455346
000020 f0 ce 9c bc 7f f2 dd be 69 27 ac 3d 5a fd f7 3c
       -0.019141644 -0.43349072 0.084059544 0.030272175
000030 d6 40 e1 be cf 34 96 bc 22 3e 0e bf 1f ec 06 bf
       -0.43994778 -0.018335728 -0.5556356 -0.5270404
000040 79 af 76 3c e0 4c 4a bc d6 b3 d0 be 9f a4 ea be
       0.015056484 -0.01234743 -0.40762204 -0.4582872
000050 35 41 fa be 82 ec 07 bf d4 6a 80 bc b5 df bd bc
       -0.48877874 -0.5309526 -0.01567594 -0.02317796
000060 82 37 e4 bd df c3 e7 be 46 d4 49 bc 7b aa ff bd
       -0.111434 -0.45266625 -0.012318676 -0.124836884
000070 b2 a4 f4 bd 32 87 a3 3c 28 e5 00 be d6 8d 3c bc
       -0.11945476 0.019961927 -0.12587416 -0.011508426
000080 44 bf 35 be 6e bc 5b bd 03 9a 55 bd 6c e5 27 bd
       -0.17748743 -0.053646497 -0.05214883 -0.040990278
000090 47 b6 d4 be 55 7d ce be 94 c7 0d bf 3d 60 fd bd
       -0.41545317 -0.40329996 -0.5538266 -0.123718716
0000a0 9b 25 06 bf 85 65 03 bf da 16 13 bf f1 40 c0 be
       -0.5240113 -0.5132678 -0.57456744 -0.37549546
0000b0 70 20 03 bf cb 2a d8 be 9f 56 cf be a8 49 0c bf
       -0.5122137 -0.42220148 -0.40495774 -0.5479989
0000c0 75 aa c6 be 42 21 10 bf 5c c9 0a bf 3d 43 f5 be
       -0.38801923 -0.5630075 -0.542135 -0.4790286
0000d0 79 68 06 bf fd 0a d6 be c6 f0 d2 be 4a f7 0f bf
       -0.5250316 -0.41805258 -0.4119932 -0.5623671
0000e0 df 5d dd be f9 1f c1 be 59 c0 f3 be aa 62 0a bf
       -0.4323568 -0.37719706 -0.47607687 -0.540568
