mdp.pth (torch, 6127 bytes, 7 tensors)

weight f4 [60, 3]
00000000: 0cb2 3dc0 d782 45c0 7d8c aa3f ada7 223e
00000010: 54c3 c4be e47e 843f ebe9 14bf 2268 073f
00000020: 7fde a43f c48c 26bf d38a 9dbf 11c9 643e
00000030: ecab 423f 569c b23e f5d4 d13f e16f 70bf
00000040: 4e48 c53b 809c 1dbf 763e 033f 1294 58be
00000050: 8e95 55bf 819b 933e d064 4fbf a59f 13bf
00000060: 314f 433f edaa 1bbf 6243 8b3f ae90 3840
00000070: be50 563f 9ec6 5ebe 5714 63bd 0191 b93e
00000080: a6e9 f4be 8b05 453f 2d4d 963d 699a afbe
00000090: c4a4 d8bb acce 4c3b 8217 c53f 2f7d afbe
000000a0: 7b1b 2c3e 2509 a6bf c6b0 dc3f 386e 35bf
000000b0: 18e3 b6bf 1995 0fbf b18c a13f 86cd 403f
000000c0: 5ddd bd3e 9425 d03e 0868 253d f07a 80bf
000000d0: 6e65 a13f d38a fb3d f74f 283f 2673 d4be
000000e0: 3ee1 633e 318a 873e 9ee8 a5be 2eb6 ecbf
000000f0: e8ca 2abe 3b6c 6a3e 0a49 cabf 9bdf 9abf
00000100: 8f05 2f3f 6640 243e 1f2e f63f 8f87 bbbf
00000110: f9fe fc3f 4a26 bb3e e9d8 bc3f 9ac0 1f3f
00000120: 296a 3fbe 90c1 583f f0d0 19bf cc27 173e
00000130: 2e4d a53f ed69 92bf 6205 c3bf caaf 5bbc
00000140: 3c24 9b3c 3225 a13f ca83 8d3e c947 db3d
00000150: cc3f a9be 9a9a d53e e8c6 f4be 6ecb b03f
00000160: edec 9f3f 3e5f cb3f 80f1 043f c167 0f3f
00000170: cc79 88bf 450d 07bf ed9b 70bf 1af3 debf
00000180: 9493 95be 52e7 ec3f ca36 77bf 6d5f e93d
00000190: b495 63bf 7af8 e2bf 9ed5 6c3f 0f59 adbf
000001a0: 0256 4dbf e570 cd3e 72a7 6bbe ae4c 12bf
000001b0: 9572 5a3f 0572 573f 284b 673f ece2 19bf
000001c0: 9959 a1bf e016 703f 0f85 2040 1f65 4ebf
000001d0: e607 563f fd44 f73f aaca 05c0 85ab e1bf
000001e0: 5509 153f 47b9 35bf 77b0 6bbf d8c5 213f
000001f0: f51d 5cbf 012e 24be b851 efbf 45d7 2a40
00000200: c4ab 0cbf 2bb6 ffbe 1444 5e3e 2f8c 953f
00000210: eb82 90be c3b7 dbbf 2003 55bf a8e7 513f
00000220: 5e29 113f 13b9 78be 2a4e 8cbf 7f76 34c0
00000230: ac02 553d d316 a1be 5d9e d73f 524e 77bf
00000240: 81b4 2c3e b81c 90be d5fe bfbe 333d 9f3f
00000250: cc70 41c0 759f 8e3f e48c da3e 05c1 3c3e
00000260: b358 e7bf 347c 4f3f b8bf b2bf 4eae 12be
00000270: 75c1 8c3e 5431 9bbf 4238 ee3e 70d5 d43f
00000280: 2cf7 643f 99fe ee3f 3829 e7bf af22 7ebf
00000290: f6dc ba3f 5cac ef3e 51b0 a6be b89d b93e
000002a0: 32d7 8bbf 73bf c4bf 45f0 bfbd f506 363f
000002b0: 6ebe ccbf dcc6 883e 4911 ad3f 9361 e5be
000002c0: 134c 4b3e cab8 89be 4249 183f 968d b8bf
-2.963992 -3.0861108 1.3324124 0.15884276 -0.38430274 1.0351224 -0.5816943 0.5289327
1.28804 -0.6505854 -1.2307991 0.22342326 0.7604358 0.348849 1.6393114 -0.93920714
0.0060205823 -0.61566925 0.5126718 -0.21150234 -0.8343133 0.28829578 -0.810132 -0.57665473
0.7629271 -0.6080769 1.0879939 2.8838305 0.8371695 -0.21755454 -0.05543932 0.36243442
-0.4783451 0.7696158 0.07338939 -0.34297493 -0.0066114385 0.0031251116 1.5397799 -0.34275195
0.16807358 -1.2971541 1.7241447 -0.70871305 -1.4288054 -0.5608688 1.2621061 0.75313604
0.3708295 0.4065367 0.040382415 -1.0037518 1.2609079 0.12282338 0.65747017 -0.414941
0.22253892 0.2647262 -0.32404035 -1.8493097 -0.16678965 0.22892849 -1.580354 -1.2099489
0.68367857 0.16040191 1.9232825 -1.4650744 1.9765311 0.3655265 1.4753696 0.6240326
-0.1869284 0.8467035 -0.6008444 0.14761275 1.2914178 -1.1438576 -1.5236018 -0.013408611
0.018938176 1.2589476 0.2763961 0.10707051 -0.33056486 0.41719514 -0.47808003 1.3812082
1.2494179 1.5888441 0.51931 0.5601769 -1.066217 -0.5275462 -0.93987924 -1.7417939
-0.29214156 1.8508093 -0.96567976 0.11395154 -0.88900304 -1.7732079 0.92513454 -1.3542804
-0.8020936 0.40125194 -0.23013094 -0.57148254 0.8533109 0.84158355 0.90349054 -0.6011188
-1.2605468 0.93784904 2.5081213 -0.8062305 0.836058 1.9317929 -2.0904946 -1.7630469
0.58217365 -0.70985836 -0.9206614 0.6319251 -0.8598321 -0.16033174 -1.8696814 2.669389
-0.54949594 -0.4994367 0.21705657 1.1683406 -0.28224882 -1.7165455 -0.83207893 0.81994104
0.56703746 -0.2428935 -1.0961354 -2.8197324 0.0520045 -0.31462726 1.6845204 -0.9660388
0.16865732 -0.2814691 -0.3749911 1.2440552 -3.0225096 1.1142412 0.42685616 0.18433006
-1.8073944 0.81048894 -1.3964758 -0.14324304 0.27491346 -1.2124429 0.46527296 1.6627636
0.89439654 1.8671447 -1.8059454 -0.9927167 1.4598682 0.46811187 -0.32556394 0.36253142
-1.0925047 -1.5370926 -0.09372 0.71104366 -1.5995615 0.26714218 1.35209 -0.44801006
0.19853239 -0.26898795 0.5948678 -1.4418209

weight_ih_l0 f4 [10, 3]
00000000: 0f6d d43e 7061 513f bdf8 02bf 3a4d 02bf
00000010: d8fa 643e 9e59 9dbc 407f 513d 3a7a dabe
00000020: 4fe1 953e 5392 1d3d 96ed 20bf 7409 5e3e
00000030: 051f 03be 8e88 84bc 9b94 d9be 4c41 1e3f
00000040: 61b9 69bf 1af2 7a3d 6028 a33d 9042 a9be
00000050: a7a9 ca3c 64a7 1e3d 260e 1a3f 2442 59bd
00000060: bef2 393e 05a7 40be 9cd4 f73e f656 103f
00000070: 0db9 203f 7152 79bf
0.41489455 0.817893 -0.51160794 -0.5089909 0.22361314 -0.019207772 0.051146746 -0.42671376
0.2927346 0.038469624 -0.6286253 0.21683294 -0.12804802 -0.016178396 -0.4249619 0.61818385
-0.9129849 0.061266042 0.07966685 -0.33058596 0.0247391 0.038733855 0.6017784 -0.053041592
0.18159005 -0.18813713 0.48404396 0.5638269 0.62782365 -0.9739142

weight_hh_l0 f4 [10, 10]
00000000: b477 50bc 7fc3 ccbb 4725 abbd a06e 72be
00000010: fed5 5d3e ce30 1d3e 04fd 20bc a2ec 903c
00000020: f439 223d 28eb 943e 9b28 d6bd bed2 9b3e
00000030: 2648 f0bc 51c4 e139 412b 4b3e a072 5dbe
00000040: 0eb8 56bd e452 e13d e85c 2a3e d9a2 0fbe
00000050: 56c5 163d f11f 3bbe 8c14 113e 9acf 79be
00000060: b9c6 e73d 5fdf 253e b9a0 9ebd d2db 89be
00000070: 9f25 b63d e521 a13e e067 48be 3dd6 903d
00000080: cfd1 33be fa1f 8f3e fa9f dfbc be32 9e3e
00000090: 1a13 2ebe 9894 bc3a 67bb 83be 6db9 b73d
000000a0: eaee 2d3e c7a1 1fbe 7f43 c8bd 8dbd 6dbd
000000b0: 8eea 9c3e 78f9 fc3c 8f97 85bd 901e 493e
000000c0: 9b12 c9bc c8ba 82be f062 943c 1158 0dbe
000000d0: aa4d 04be 20bb 27be fb2f 5a3d 3398 15be
000000e0: e53c ebbd 34de 753e 6686 783e 8374 893e
000000f0: 117b 47be 2ca7 2abe 2e8e 6f3e ce86 503d
00000100: f51a 80be 6ea1 4dbe e0f6 d8bb 62dc 933d
00000110: c856 e13d d9ac d9bd 794c 9cbe 19e1 9bbc
00000120: ab22 683d 9e10 4a3d 4e42 69be 790e 623c
00000130: 1559 84be 548d 803e 61e6 f9bc c2e3 57bc
00000140: 1fa7 003b 708e b4bd 5e9d 57be 7a60 1c3e
00000150: ab62 08bd 82d3 e03c 10a9 bebd a21c 943e
00000160: f1f3 13be c432 75be f945 59be 901d 47be
00000170: 5443 683e d452 253e 2aaf 98be 1a64 8ebe
00000180: ac4e f33d 6d1c 253e 0422 99be da97 58bd
-0.012723852 -0.006248891 -0.083567195 -0.23675013 0.21663663 0.15350649 -0.009825949 0.01769096
0.03960605 0.2908566 -0.10456964 0.3043422 -0.029331278 0.0004306161 0.19840719 -0.21625757
-0.052421622 0.11002138 0.16637003 -0.14026965 0.036809288 -0.18273903 0.14167994 -0.243956
0.113172 0.1619849 -0.07745499 -0.26925522 0.088938944 0.31471172 -0.19570875 0.07072113
-0.17560504 0.27954084 -0.027297962 0.30898088 -0.16999474 0.0014387546 -0.25728914 0.08970914
0.1698567 -0.15589057 -0.09778499 -0.058042098 0.306477 0.030880675 -0.06523048 0.19640565
-0.024545005 -0.25533128 0.018113583 -0.13803126 -0.12920251 -0.16379976 0.053268414 -0.1460884
-0.11486224 0.24010545 0.24270019 0.26846704 -0.1948054 -0.16665334 0.23394081 0.05090981
-0.25020567 -0.20081112 -0.0066212267 0.07219769 0.1100288 -0.10628671 -0.30527094 -0.019028233
0.056673687 0.049332254 -0.227792 0.013797396 -0.25849214 0.25107825 -0.030505361 -0.01317686
0.0019630862 -0.0881623 -0.21056125 0.15271178 -0.033297222 0.027444605 -0.0930959 0.28928095
-0.14448525 -0.23945147 -0.21218099 -0.19444871 0.22681934 0.16144878 -0.2982114 -0.27810746
0.1188024 0.16124125 -0.29908764 -0.052879192

bias_ih_l0 f4 [10]
00000000: 0a69 5ebd 568a 4ebe 8a6f 673d fb4f 22bf
00000010: ecb9 c93e c065 343e 6401 7e3e 07c4 be3e
00000020: 4728 fb3e 0c2d 58be
-0.05429939 -0.20169958 0.056502856 -0.6340329 0.3939966 0.1761694 0.24805218 0.37258932
0.49054167 -0.21110934

bias_hh_l0 f4 [10]
00000000: e0af c3be ea75 d83c 2374 babd 624f a6be
00000010: f1c3 7cbc 1216 1c3d 7b6c 0e3f 02ed 1f3f
00000020: c79c a13e cf58 983e
-0.3822012 0.026423413 -0.091041826 -0.3248244 -0.015427575 0.038106985 0.5563428 0.6247102
0.31564924 0.29755256

weight f4 [60, 10]
00000000: 9738 d1be a96f 4cbe a77c d5bd 49ac 19bf
00000010: a619 783d 8ef7 96be 18aa 113e 305f 293f
00000020: 733b bd3d 4325 823e d896 b5bd 24a6 993e
00000030: 8b78 24be 6d5e 43be fe4f f83e 9426 f5bd
00000040: 7179 21be b08f 6cbe 6c48 a93d 7d41 2a3f
00000050: 9a9c 4e3e 1090 cebe c6df c2be 65dc d8be
00000060: 2c77 43bd aa65 5abb 5525 11be cfa1 c63e
00000070: 778c f9bd 4a81 ab3e 5019 9040 b285 a63f
00000080: 40f8 6240 83a3 5a3f 76b4 10c0 bd0b 5c3e
00000090: 4e29 02c0 3ff9 f7bf 93af 48bf b8f6 4240
000000a0: 6c11 eb3e 53c4 443e 4441 523e 5aea 773d
000000b0: 672b 9ebe c7fa d0bd 0564 55be 5cc0 7c3e
000000c0: 2f92 d3be 9a9e 163f b150 9cbd 167c 093f
000000d0: 66ac a33e a56d ac3b c5ba 1bbf 7cf7 94be
000000e0: 3c14 9fbc 4364 b13e 7ac0 7e3e 2013 16bf
000000f0: 7cea 45be 7384 893e 0652 403e d0b1 db3e
00000100: a2e7 b4bd c50a 89be fa67 ea3e f4f6 90be
00000110: 4c66 b53e 9d3c 273d 7dc2 9bbe 9f9c 963d
00000120: f8bc c33d e3cb 6abd d18b dbbe b877 d23e
00000130: 0228 92be e465 933e 872d 9d3e ceb3 1abf
00000140: 5659 e33e 57bb a8be 20b1 c9be 5414 f23d
00000150: 1818 4e3e b9f9 253e 3efb 07bf d3f6 a93e
00000160: 07cd f9be 770f 0f3f 7eac 8340 cb2e ae3f
00000170: 8af1 6440 dea5 383f 09d7 17c0 cf24 693e
00000180: c045 11c0 9d0c edbf ac8e 0fbf 94ad 5240
00000190: de54 d4bd 2fba 593e a78c 93be 5d15 90bc
000001a0: 1b1b 29be ee28 cc3d 442d b5be 49c7 d5bc
000001b0: 8d07 e1bc e364 99be a7de 0bbe 3da3 953e
000001c0: bb8b a03e 5e67 7d3d ad9a eebd e18f 0b3e
000001d0: 6532 d43e 96cb 14bf 56be 6f3e 8eb6 9c3d
000001e0: a996 8740 eed1 c73f 952f 5d40 b6bf 273f
000001f0: 1cd4 1ac0 ed8f cd3e b68d fbbf 4abf dfbf
00000200: 2859 2cbf 3001 4840 ec12 15be d10d 893e
00000210: 87d3 a43e ba5d f23c 272f a6bd cc8f cb3e
00000220: a3c9 fdbe f5de d23c 5d60 edbe 2261 a4be
00000230: 0183 9740 4121 ca3f 7368 5940 ea0a 313f
00000240: 16d1 06c0 621a 0c3f 1084 0ec0 030c f8bf
00000250: 6c6a c1be c3f1 3140 9424 9140 1e34 b23f
00000260: 8de0 5740 dfa2 5b3f 7bc5 07c0 d365 983e
00000270: b4c9 14c0 ba02 edbf 1a4c e6be bdac 3640
00000280: 0036 81bd 45bf 7fbe 7aa1 ccbe 5cb7 a2be
00000290: 48d9 2ebb f084 853d 704c be3d d093 a6be
000002a0: 9c64 9ebe 33e8 74be 2153 d43d 4e76 a6be
000002b0: 46c1 1fbe 4023 f5bd c308 103c ca9a 8c3d
000002c0: 9b70 8fbd 0de4 fabe 1fe4 68be 715c 11be
000002d0: c4c2 9040 114a c23f 817c 5b40 668e 3a3f
000002e0: 1406 01c0 d8af bf3e 4c5c 07c0 8293 0ec0
000002f0: 401f d8be 4902 4440 fc90 8840 7a95 c03f
00000300: e20a 5a40 83cc 293f 4079 27c0 ef2a 883e
00000310: 81da e6bf 4d55 cebf f30c 75bf c366 4140
00000320: f39c 9540 0288 da3f a127 5040 d38b 353f
00000330: fc82 1ac0 85b4 f33e 4fbf 08c0 8670 debf
00000340: 8188 e2be 17ba 2f40 97f1 8d40 c8ca c03f
00000350: 02a0 5540 61f4 2c3f ae35 0bc0 3fdf a03e
00000360: d996 f1bf 1db1 f9bf 0b3b 36bf 2c16 3840
00000370: 6370 0b3f bf1b e63d 1299 d63e 8918 63ba
00000380: c79b 89be e27d d8be 5269 1ebd 52e9 cc3e
00000390: f5ab 9f3e 41e7 2e3f a550 af3e 9d12 79be
000003a0: 01bc bb3d a51d d33d f002 f03d dcb2 a8be
000003b0: 7fcb 743e c170 1bbf 7cf4 07bf aec4 1dbe
000003c0: d7a6 073f 60e4 ab3d b30e 14bf 56a2 0a3e
000003d0: 13f0 5cbe 0828 f2bc ddc0 6fbf d18e adbe
000003e0: d924 59be 89bb bf3e 3d41 8840 0c4f b93f
000003f0: e780 5940 9721 5c3f 32d3 1dc0 24fe 363e
-0.40863487 -0.1996447 -0.10424166 -0.6002851 0.060571335 -0.29485744 0.14225042 0.6616087
0.09239855 0.25419053 -0.08866662 0.30009568 -0.16061608 -0.1907899 0.4849853 -0.11970249
-0.15768982 -0.23101687 0.082657665 0.6650618 0.20176926 -0.40344286 -0.3806135 -0.42355648
-0.047721073 -0.0033324757 -0.14174397 0.38795325 -0.12184995 0.33497077 4.50309 1.300955
3.546402 0.8540575 -2.2610145 0.21488853 -2.033771 -1.9372939 -0.78392905 3.0463085
0.4591173 0.19215517 0.2053271 0.06052623 -0.30892488 -0.10204082 -0.20838936 0.24682754
-0.41322467 0.58835757 -0.07632578 0.53704965 0.31967467 0.005262094 -0.6083186 -0.29095066
-0.019418828 0.34646806 0.24878111 -0.5862293 -0.1932773 0.26858863 0.1878129 0.42909098
-0.08833243 -0.2676603 0.45782453 -0.2831341 0.3542961 0.04082929 -0.3042182 0.07354092
0.09557527 -0.057323348 -0.4288011 0.41106963 -0.2854615 0.28788674 0.30698797 -0.6043061
0.44404095 -0.3295543 -0.39392948 0.118202835 0.20126379 0.16208543 -0.5311774 0.33196124
-0.48789236 0.5588297 4.114806 1.360803 3.5772424 0.72128093 -2.3724997 0.22767948
-2.2698822 -1.8519474 -0.56077075 3.2918444 -0.1036775 0.2126243 -0.28818247 -0.017588312
-0.16514246 0.09968744 -0.35386097 -0.026096003 -0.02746942 -0.29959783 -0.13659154 0.29226103
0.31356606 0.061866157 -0.11650596 0.13629104 0.41444698 -0.5812315 0.23412451 0.07652007
4.237141 1.561094 3.4560292 0.655269 -2.4191961 0.4014887 -1.9652622 -1.7480252
-0.6732354 3.1250725 -0.14558 0.26768354 0.32192633 0.029585708 -0.08114462 0.39758146
-0.495679 0.02574108 -0.46362582 -0.32105356 4.7347417 1.5791398 3.397 0.6915728
-2.1065116 0.54727757 -2.2268105 -1.9378666 -0.37776506 2.780381 4.535715 1.3922155
3.3730805 0.85795397 -2.1214283 0.29765186 -2.324811 -1.8516457 -0.44979936 2.854293
-0.06309128 -0.24975307 -0.39966947 -0.31780517 -0.0026679803 0.065194964 0.09291923 -0.32534647
-0.30936134 -0.23916702 0.10367418 -0.32512134 -0.15601072 -0.11969614 0.008791151 0.06865461
-0.070039 -0.49002114 -0.22743271 -0.1419542 4.523775 1.5178853 3.429474 0.7287353
-2.015996 0.37438846 -2.1150084 -2.2277532 -0.42211342 3.0626395 4.2676983 1.5045617
3.4069142 0.66327685 -2.6167755 0.26595256 -1.8035432 -1.6119782 -0.95722884 3.021897
4.675409 1.7072756 3.2524188 0.7091648 -2.4142447 0.47598663 -2.1366765 -1.737809
-0.4424477 2.745733 4.435741 1.5061884 3.337891 0.6756039 -2.1751513 0.31420323
-1.887416 -1.9507176 -0.7118384 2.8763533 0.54468364 0.11235761 0.41913658 -0.0008663019
-0.2687666 -0.4228354 -0.03867466 0.4002176 0.3118588 0.68321615 0.34241214 -0.24323507
0.09166718 0.103083886 0.1171931 -0.3294896 0.23905753 -0.60718924 -0.5310743 -0.15407059
0.5298895 0.083931684 -0.5783493 0.13538489 -0.21575956 -0.029560104 -0.9365366 -0.33898023
-0.21205463 0.37447765 4.2579637 1.4477248 3.3984926 0.85988754 -2.4660153 0.17870384

bias f4 [60]
00000000: 975a a13e 572c 423e 7ff2 173e c012 cfc0
00000010: d060 4e3e 20f6 8abc c9ca 613e 5d1b 81be
00000020: 1633 763e abbf dec0 ef12 163e b743 6b3e
00000030: b460 ddc0 718f a33d f847 d8c0 2808 cdc0
00000040: 6118 e7be cce0 a4bd e565 cec0 a4d2 cec0
00000050: 869e d6c0 0cb7 d7c0 5404 1b3e 51bf 0bbe
00000060: f520 393e 24df dec0 8a46 57be 41d9 913d
00000070: afd8 4bbd f52c 37be df8d bcbe 9104 57be
00000080: 1c0e 31be ff16 bbbe 0d3c fbbe fc3e 30bf
00000090: ed8b d8c0 da1d d5c0 7b1a d9c0 5f95 88bf
000000a0: 475f d8c0 e1a5 d1c0 4d15 d4c0 b437 dec0
000000b0: 45a8 d1c0 d89b cbc0 5059 d8c0 411c dbc0
000000c0: 8d4f ccc0 6fa2 cec0 1875 dcc0 e0bc dbc0
000000d0: 5dc5 d1c0 0fc5 d6c0 22c4 d2c0 cfce d5c0
000000e0: 0bfb cec0 259f d1c0 f420 d8c0 8fa5 d0c0
0.31514427 0.18962227 0.14838599 -6.471039 0.20154119 -0.016963065 0.22050013 -0.2521619
0.24042925 -6.960897 0.1465566 0.2297505 -6.9180546 0.07986344 -6.7587852 -6.4072456
-0.45135787 -0.08050689 -6.4499383 -6.463213 -6.706851 -6.7410946 0.1513837 -0.136472
0.18078978 -6.964739 -0.21023002 0.07121516 -0.049767192 -0.17888243 -0.3682699 -0.20997836
-0.17290539 -0.36540982 -0.49069253 -0.68846107 -6.767081 -6.659894 -6.7844825 -1.0670584
-6.7616305 -6.551499 -6.6276 -6.9442997 -6.5517907 -6.362774 -6.7609024 -6.847199
-6.384711 -6.4573283 -6.8892937 -6.866806 -6.555342 -6.711555 -6.586442 -6.681495
-6.468145 -6.550677 -6.7540226 -6.52021
